yolo_config/BTLnet/BTLnet_bn_2828.onnx (onnx, 909971 bytes, 14 tensors)

bn_conv.bias f4 [32]
000000 da d7 1b 3e 70 36 bd 3c 5e 74 20 3e 59 e9 fe 3b
       0.1521906 0.023097247 0.1566939 0.007779282
000010 e2 09 d7 bb 3d 01 0e 3d f2 af b8 3d 9f ae 08 3d
       -0.0065624574 0.03466915 0.09017934 0.033369657
000020 9a 52 cd 3c d6 b1 32 bc 1b 17 2b 3e 84 39 3d 3d
       0.025063802 -0.010906657 0.16708033 0.04619743
000030 6a 27 16 3e 73 bb d5 bc 8d e2 8c 3d 45 1d 19 3e
       0.14663473 -0.02609036 0.06879149 0.14952572
000040 55 99 04 3d 98 a3 1a 3c 7c 87 08 3d 82 73 5e 3d
       0.03237279 0.009438418 0.033332333 0.054309376
000050 72 cb 00 3c 75 a1 6f 3b 70 d8 6f ba 15 30 07 3c
       0.007861005 0.0036564742 -0.0009149378 0.00825121
000060 47 05 12 3e 24 a5 30 3d c0 2c 53 3d b6 cb 07 bb
       0.14259826 0.04312624 0.05155635 -0.0020720786
000070 b5 b1 44 3c 4e 95 7f 3d 20 4b 30 bd 06 dc 85 3c
       0.012005259 0.062398247 -0.043040395 0.016340267

bn_conv.running_mean f4 [32]
000000 8a 98 61 41 75 d9 11 3f d9 3e fa 40 d5 e4 43 41
       14.099741 0.5697244 7.820172 12.243367
000010 29 df 98 3d e6 b3 f5 40 d9 66 7a 41 1e 59 18 3e
       0.074644394 7.6782103 15.650109 0.14877746
000020 15 70 2b 41 fb 37 88 41 e0 ce cd 40 12 17 a0 3e
       10.714864 17.027334 6.4315033 0.312676
000030 f3 44 92 3f f0 14 3b 3e 63 41 8b 41 df 17 67 3d
       1.1427292 0.18269706 17.406927 0.05641925
000040 a0 93 e0 40 5f 03 3e 3e 20 1b be 3d f3 76 ab 40
       7.0180206 0.18555973 0.092825174 5.35827
000050 9b a1 3a 3d a6 46 b1 3e 1a 6a ef 41 57 2d 0d 3e
       0.045564275 0.34624213 29.926807 0.13786827
000060 ab 34 2b 41 93 ee 17 3f b6 5e 6b 41 39 69 7e 3d
       10.700358 0.5934841 14.710623 0.062112067
000070 00 cf 24 40 2a 8f fe 40 42 2f 82 41 c5 14 7a 41
       2.5751343 7.954976 16.273075 15.630071

bn_conv.running_var f4 [32]
000000 f8 fd 6c 44 4b 07 66 41 01 3a 0f 44 ba d3 39 44
       947.96826 14.3767805 572.9063 743.3082
000010 5f 65 3a 3e 69 ed 06 44 b6 a3 8a 44 2c e4 4a 3f
       0.18202733 539.70953 1109.116 0.7925441
000020 53 8c 85 44 d6 3a 83 44 84 ac 03 44 82 8d 92 3f
       1068.3851 1049.8386 526.69556 1.1449435
000030 82 50 4a 42 1d 66 fa 3e 8c 45 8d 44 a6 48 09 3e
       50.57862 0.4890603 1130.1733 0.1340662
000040 be 9c 09 44 9f 99 18 3f b0 46 68 3e b5 e0 5b 43
       550.4491 0.5960941 0.22683215 219.87776
000050 a1 8e 9f 3e f5 08 11 41 a3 b6 f6 44 76 c0 6f 40
       0.31163505 9.064687 1973.7074 3.746122
000060 c9 5e 2e 44 33 f1 6d 41 ad 85 8f 44 b1 b9 01 3e
       697.481 14.871387 1148.1774 0.12668492
000070 11 35 58 40 f8 61 44 43 cd 79 8d 44 f9 49 6a 44
       3.378239 196.38269 1131.8063 937.1558

bn_conv.weight f4 [32]
000000 70 f8 0f 3f fd 3e a8 3e f9 34 1f 3f 3d 47 4f 3f
       0.5623846 0.32860556 0.62190205 0.80968076
000010 36 15 4b 3e 6b 7d d5 3e f1 65 bf 3e 96 1e 49 3e
       0.1983231 0.4169725 0.37382463 0.19640574
000020 d5 6b b7 3e 4f 36 bd 3b 78 39 18 3f 33 4a 83 3e
       0.35824457 0.0057742964 0.5946269 0.25642547
000030 0d d5 5c 3f a5 93 ac 3e 9e 72 cb 3e 17 16 de 3e
       0.8626259 0.33706394 0.39735883 0.43376228
000040 11 42 91 3e 9e 72 a9 3e c7 e3 11 3f 0c 25 78 3f
       0.28370717 0.33095258 0.56988186 0.9693153
000050 33 6c 9b 3e 85 22 0a 3f ec 38 96 bb e9 31 ab 3e
       0.30355987 0.5395892 -0.0045844223 0.33436516
000060 99 30 3a 3f 3d 1f 02 3f 32 c3 ca 3e fe a0 9a 3e
       0.72730404 0.50828916 0.39602047 0.30200952
000070 ac 38 f7 3d bb 43 35 3f 1c 81 dd 3e 0b 98 98 3d
       0.12071356 0.70806473 0.43262565 0.07450875

conv1.bias f4 [32]
000000 8d 26 fe 3e 98 ed ed 3e 7a 97 85 3e 78 21 e8 3e
       0.49638787 0.46470332 0.2609213 0.45338035
000010 67 4a ab bc 0d 6e c9 3e 2b 0b 91 3e 6c bd f7 3c
       -0.020909501 0.39341775 0.28328833 0.03024169
000020 99 f8 06 3f 3e e7 4e 3e ba 36 ad 3e c5 14 b0 3e
       0.5272308 0.202054 0.33830816 0.34390846
000030 e9 9e b1 3e 36 7c 42 3e df 56 23 3f ff d8 0e 3d
       0.3469155 0.18992695 0.6380443 0.034874912
000040 ba 95 9b 3e 5d db a8 3e c9 57 99 3e 6a 9f 9c 3d
       0.3038767 0.3297986 0.29949787 0.07647593
000050 95 5d 99 ba f9 6c 87 3d 6a 2c 24 3e cf 55 b3 3d
       -0.0011700863 0.06612582 0.16032568 0.08756601
000060 27 1e 17 3f 9f 89 f2 3e dd 7d 9a 3e e7 f6 2e 3e
       0.59030384 0.47370622 0.3017415 0.17086373
000070 c3 4e a9 bd bc 9e ae 3d e3 a3 56 3e 4f 6b a6 3e
       -0.08266976 0.0852637 0.20960955 0.32503745

conv1.weight f4 [32, 3, 5, 5]
000000 dd 9f 80 be e3 9f 84 be ed 50 3e bd ad cb 2c be
       -0.25121966 -0.25903234 -0.046463896 -0.16874571
000010 ea bd 5f be 4b 96 38 be 37 a9 05 bd 75 be 23 bc
       -0.2184979 -0.18026082 -0.03263208 -0.009994139
000020 74 ed a6 3d 94 13 ed bd 6a 09 09 be aa e4 1c 3d
       0.08150759 -0.11576 -0.13382497 0.03830401
000030 e3 07 55 bd 71 e2 27 3c 28 eb 2e be 23 a8 e1 3d
       -0.052009474 0.010246859 -0.17081892 0.11018398
000040 52 b3 37 3e a2 bb d5 3d 65 bd 86 3d 6a b4 d5 3d
       0.17939499 0.10436179 0.06579093 0.10434802
000050 34 28 58 bd 18 72 d1 3d bb d6 90 3d b4 44 6d bd
       -0.052772716 0.1022684 0.070722066 -0.05792685
000060 c0 29 01 be ae 02 48 3c 97 b9 cf bd 5c 4e 9b bd
       -0.12613583 0.01220767 -0.1014282 -0.07583305
000070 aa 4d 0a 3d e3 35 38 be f8 a1 d8 bc 50 73 d5 3d
       0.033765472 -0.17989306 -0.02644442 0.10422385
000080 07 20 44 3d 85 41 1d 3e 8d dd ff 3d 7a cf 2e 3e
       0.047882106 0.15357025 0.12493429 0.17071334
000090 80 e3 6d 3e bf 39 31 3e 93 24 2b bc 05 13 85 3d
       0.23231316 0.17307185 -0.010445732 0.06497768
0000a0 0b 0e 7d 3e 6b 1f ce 3e 81 b7 9d 3e 9d 45 5c 3e
       0.24712388 0.40258345 0.30804065 0.2151093
0000b0 fc 7e b3 3c 9e dd 3b 3e cb 92 6a 3e 56 ae 49 3e
       0.021911137 0.18346259 0.2290756 0.1969541
0000c0 72 80 b7 3d ad 6b c4 bc 7e bf 7b bd 2b 74 0a be
       0.08960046 -0.023977125 -0.061461918 -0.13520877
0000d0 9b c6 ba 3c 15 86 b9 3c 95 c7 bc bd 27 f2 fe bd
       0.02279978 0.022646943 -0.09217755 -0.12448531
0000e0 a6 eb 8e bd e6 75 fa 3c f1 e0 9a bd fe b8 99 bc
       -0.0697854 0.030573796 -0.075624354 -0.018764969
0000f0 22 44 21 be e4 f6 c5 bd 35 b7 3c bd d6 92 08 3d
       -0.15748647 -0.09666231 -0.046073157 0.03334316
000100 7e 73 33 bd d5 48 a0 3d ef b3 1c 3d 1f 26 50 bd
       -0.043811314 0.078263916 0.038257536 -0.050817605
000110 bc af 83 3d d8 52 4e bc fa 33 93 bc 30 74 a9 bd
       0.06430003 -0.012592994 -0.01796912 -0.08274114
000120 e7 c6 a6 bc 3c c4 44 bd 23 fa 89 3c 4f 35 3d be
       -0.020358516 -0.048038706 0.016842907 -0.18477367
000130 fe 77 21 be 02 c0 c3 39 e0 dd c9 bc 82 de 92 bd
       -0.1576843 0.00037336355 -0.024641931 -0.07171346
000140 7e 4b 84 bd 51 6f 6f be cc fb 32 bd f6 27 81 be
       -0.064597115 -0.23382308 -0.043697163 -0.252258
000150 e3 c4 e7 bd 16 e4 0b bd db 0b 5a be e6 bc 93 be
       -0.1131685 -0.034153067 -0.21293585 -0.28855056
000160 da 70 8f be 9e d9 3b be 7c 61 48 be ee cd 6b be
       -0.28015786 -0.18344733 -0.19568437 -0.23027775
000170 03 9e 18 be a6 bb c0 bd 37 2c 2d be 5b 9d 8d bd
       -0.14904027 -0.09410791 -0.16911398 -0.06914779
000180 46 b5 6a be 50 79 4c be ba 6f f8 bc 02 9c a6 3c
       -0.22920713 -0.19968152 -0.030326713 0.020338062
000190 5e 0b 1e 3d 44 6e c6 3d 1c 9d 0d 3e da ee 1d 3e
       0.03858506 0.09689 0.13829464 0.15423146
0001a0 73 45 a8 3d 74 c7 b3 3d 44 4f fb 3d de 9f 82 3d
       0.082163714 0.08778277 0.12270978 0.063781485
0001b0 7c 53 90 3c bd 03 c3 3d c0 ee e9 3d 9b 3a ca 3d
       0.017617933 0.095221974 0.11422491 0.09874459
0001c0 bf bf d6 3b ea e9 9d bd 6f 02 1d bd d8 1e ba 3d
       0.0065536196 -0.07710631 -0.0383324 0.09087914
0001d0 48 c6 e0 3d d5 f3 e2 3d 9e 30 53 bd ce 31 d3 3d
       0.10975319 0.110816635 -0.051560037 0.10312234
0001e0 04 7e f0 bd 64 a2 e1 3d 6b 12 bb 3d 7f 31 d3 bd
       -0.117427856 0.11017302 0.09134372 -0.10312175
0001f0 aa c3 5c 3d c9 5b 46 3c 0b 32 90 3d 5a 0d 85 3d
       0.053897537 0.012106844 0.07040795 0.06496687
000200 0d 44 aa 3d 73 a7 94 bd ee 45 67 3d 16 18 a0 3d
       0.08313761 -0.07258501 0.056463175 0.07817094
000210 0f 0e 21 bd cd 40 fa bd a4 42 37 bd 05 89 05 3d
       -0.039320048 -0.12219391 -0.044741288 0.032601375
000220 15 52 54 bd e7 91 82 bd 09 7c 16 be fb a8 91 3b
       -0.051836092 -0.06375485 -0.14695753 0.004445193
000230 a6 ce f6 3d 1e 26 a5 3d 01 99 e5 bd ec 2f 00 be
       0.12051134 0.08063911 -0.11210824 -0.1251828
000240 86 57 b0 bd b6 5f a0 3d 17 68 31 bd 21 43 49 3d
       -0.08610444 0.078307554 -0.04331216 0.049136285
000250 08 b6 de bd 14 1c 4c 3d 8e d0 68 3d 3b 3f 6e bd
       -0.108745635 0.049831465 0.05683952 -0.05816577
000260 fa a4 33 be e8 c4 e2 bd 44 57 48 be 0d 2f b5 bb
       -0.17543402 -0.11072713 -0.19564539 -0.0055292905
000270 81 42 51 bd f4 d5 40 bc 6a 94 ff bd 63 85 07 be
       -0.051088814 -0.01176976 -0.124794796 -0.13234477
000280 f4 29 16 be ad f4 0d be e5 b6 1d be d4 f0 1c 3d
       -0.14664441 -0.13862868 -0.154018 0.03831561
000290 bc 98 05 3d 57 91 2c bd 2f 53 8a bd fe ce ff bb
       0.032616362 -0.042130794 -0.06754147 -0.007806658
0002a0 7b b1 dd bc 5c 49 28 be 92 a1 84 3c b4 eb 4d be
       -0.027062168 -0.16434234 0.016190324 -0.20109445
0002b0 e1 da 3e be 96 2a f8 bd 6f e3 73 be dc ce c2 3d
       -0.18638183 -0.121174976 -0.23817228 0.095121115
0002c0 6c 9f 3a 3d 23 f4 ff bc 6a 5a ea 3d 49 cf c7 bd
       0.045562193 -0.031244343 0.11443026 -0.097563334
0002d0 0f c0 fe 3d 48 80 60 bd eb 25 45 bd 7d 1b ac 3d
       0.12438976 -0.05480984 -0.048131865 0.084036805
0002e0 0b 87 b8 3d 18 bb c2 3d 07 13 89 3d 57 c4 e9 3d
       0.090101324 0.095083416 0.06693082 0.11414402
0002f0 70 f3 03 3e ea 71 25 3e 4f ad 5f bd b1 67 5d 3d
       0.12885833 0.16156736 -0.05460864 0.054053966
000300 8c a5 32 3e ca 9d 00 3e 47 44 39 3e a8 a1 81 3b
       0.17445964 0.12560192 0.18092452 0.0039560385
000310 12 03 f4 bd c9 17 8e bd 6c ab 29 bd 0b e6 2b bc
       -0.11914648 -0.069381304 -0.041423246 -0.010491858
000320 0e ab 5e bd da 7c 34 be 89 20 72 bc bd 58 d3 bc
       -0.05436235 -0.17625752 -0.014778265 -0.02579915
000330 91 80 98 bd 2a 9b 6a bd 38 77 8a bd 44 ea d8 bc
       -0.07446397 -0.057276882 -0.067610204 -0.026478894
000340 99 dd 2b bd 9b 47 31 bd 86 73 41 3b d3 59 95 3d
       -0.04195938 -0.04328118 0.002951832 0.07292523
000350 e6 d8 22 3e 75 a5 42 3e 82 13 f1 3d a8 57 87 3d
       0.15903053 0.1900843 0.11771299 0.06608516
000360 2e d4 12 3d 83 a1 77 3e 26 a3 58 3e 46 6f 3f 3e
       0.03584688 0.24182706 0.21155986 0.18694791
000370 4f da 08 bd 4e 09 57 3d e0 34 4b 3e e9 53 76 3e
       -0.03341132 0.052499108 0.19844389 0.24055447
000380 34 68 bc bc 5c 02 2a be f3 0b 00 be f8 c3 0a be
       -0.022998907 -0.16602463 -0.12504558 -0.13551319
000390 62 3f cc bd cf 8f 5a 3d fd 06 1e bd 4a e8 27 bd
       -0.09973027 0.053359803 -0.038580883 -0.040993012
0003a0 c8 00 19 be 27 3b 42 bd 72 65 e8 3d e7 ed af bb
       -0.14941704 -0.047419693 0.11347474 -0.0053689363
0003b0 92 4e d5 3c 5b 38 36 be f7 51 b6 bd d4 b4 d6 b8
       0.026038442 -0.17794935 -0.08902352 -0.00010237997
0003c0 09 5a 14 3d e5 51 c2 3d c5 f0 19 be 49 7b a8 3d
       0.036218677 0.094882764 -0.15033253 0.0822664
0003d0 74 b2 d1 bd ec 9f 56 3d 88 ba a0 ba 8e 6c ca bd
       -0.10239115 0.052398607 -0.0012262622 -0.098839864
0003e0 3e 5a 88 bd 32 8b 41 be 96 c4 3a be 65 7b 2d be
       -0.06657837 -0.18900755 -0.18239054 -0.16941603
0003f0 2f 78 55 be ef 23 80 3d 93 5f d3 3d dc be 3d bc
       -0.20846628 0.06256854 0.10320964 -0.011581149

conv2.bias f4 [32]
000000 10 c8 19 be 1e 9c 18 be 0e c6 05 be ff de 02 be
       -0.15017724 -0.14903304 -0.13063833 -0.12780379
000010 3f 36 36 be 0d f0 ca bd b2 f3 02 bc 0e 51 6b be
       -0.1779413 -0.09909067 -0.007992672 -0.22980139
000020 e9 9f 96 bd 32 6a 57 bd 30 79 c6 bc 8a 23 f9 bc
       -0.07354719 -0.05259151 -0.024227709 -0.030412454
000030 3f 3c 2b be a7 6c 88 be 0d 12 be be 44 85 4a be
       -0.16722201 -0.26645395 -0.37123147 -0.197774
000040 34 f1 a1 be d9 fc 23 bd 1e 86 4d be 99 c8 3a be
       -0.31629336 -0.040036056 -0.20070693 -0.18240584
000050 b4 ec ba be f8 d5 15 bd 49 07 02 be bc 06 d5 bd
       -0.36508715 -0.03658101 -0.12698092 -0.10401675
000060 2c d3 8b be 0f 26 1a be 8d 10 0c be d2 24 59 be
       -0.2730955 -0.1505358 -0.13678189 -0.21205452
000070 51 27 4d be 2b 96 91 bd 91 2b 8d bd 12 70 8a be
       -0.2003453 -0.071087204 -0.06893075 -0.27038628

conv2.weight f4 [32, 32, 5, 5]
000000 23 af 32 bd 1a 8f be 3b cb 20 ab 3d d3 4a 80 3d
       -0.043624055 0.005815399 0.08355864 0.062642716
000010 cd 42 50 bc ed 29 25 bd 47 a1 1f 3d d6 6e 03 3d
       -0.012711239 -0.040323187 0.038972165 0.032088123
000020 3c 15 68 3d 2b fb 2e 3c ca 1a 35 bd 17 b7 f6 3c
       0.056660876 0.01068 -0.044215 0.0301166
000030 cd 57 39 3c 9f b4 4b bc a8 ae 9b 3c 8b ad 3b bd
       0.011312437 -0.0124332 0.019004181 -0.0458198
000040 ab bd 5e bc e2 c2 66 3c 38 e6 09 3c 6c 9a 0b 3d
       -0.013595025 0.01408455 0.008416705 0.034082815
000050 99 02 3c bd d5 3e 23 3b 27 23 14 3d a9 bb 7f 3c
       -0.045900915 0.0024909277 0.036166336 0.0156087065
000060 39 31 a3 3c c7 d8 44 bd ae ad 6f bc 3d 5f 3a bb
       0.019920932 -0.048058297 -0.014628811 -0.0028438114
000070 3a a1 4d 3d 69 33 ec 3d 64 56 5d bd b5 34 38 3d
       0.050202586 0.11533243 -0.054037467 0.04497214
000080 ee 58 f1 3d 53 fb 42 3e 24 45 25 3e 77 d4 80 3a
       0.1178454 0.19041185 0.16139656 0.0009828944
000090 55 a9 77 3d 29 8c ea 3d dd 77 45 3e 93 af 0b 3e
       0.060464222 0.11452515 0.19284005 0.13641195
0000a0 45 fb 9b bc 77 c4 ae 3c 0f 7b aa 3d e5 69 ab 3d
       -0.019040713 0.021333916 0.08324253 0.08369807
0000b0 44 77 e6 3d 73 4b cb bd da aa 5d bd 12 53 47 3c
       0.11253217 -0.099265 -0.054118015 0.012165802
0000c0 e8 43 d3 3c 13 85 10 3d bf 60 fc 3c 4a e5 86 3d
       0.025789216 0.03528316 0.03080785 0.06586702
0000d0 3b 48 1d 3e a2 40 9e 3d f4 5c c0 3c 9b f8 62 bc
       0.15359585 0.077271715 0.023481824 -0.0138532175
0000e0 a6 77 db 3d c8 24 e3 3d a1 fa e6 3d 01 e2 74 3d
       0.107161805 0.11091 0.112782724 0.059785847
0000f0 11 b8 24 bd de 9f 1f 3d cd 19 b5 3d 7a 59 8c 3d
       -0.040214602 0.03897082 0.08842812 0.06853004
000100 b2 08 b3 3c 86 aa 3f bd e5 2c 9e ba ff 28 57 3d
       0.021854732 -0.046793483 -0.0012067823 0.05252933
000110 28 86 80 3d a5 1a 23 3d 22 08 80 bd 0f 09 50 bd
       0.06275588 0.039820332 -0.06251551 -0.05078989
000120 02 dd 56 bd c3 57 d1 bc 2c c5 7d bd 13 88 9c 3c
       -0.052456863 -0.025554543 -0.061955616 0.019107854
000130 e6 8f fb 3c 03 44 a1 3d be 63 e6 3d 6c 08 a8 3d
       0.030708265 0.078743 0.11249493 0.08204731
000140 82 28 af 3c 84 db 0e 3d d4 19 b8 3d 4b 5a 0f 3d
       0.02138162 0.034877315 0.08989301 0.03499822
000150 5d c0 67 3d 98 2a db 3b 96 61 f6 3c 6c 3e 91 3c
       0.056579936 0.006688427 0.03007583 0.01772996
000160 a2 54 4d 3d d9 83 4a 3c 3b 66 fd bb 0d 34 06 bd
       0.05012954 0.0123605365 -0.007733134 -0.032764483
000170 a0 dd 80 3c a6 14 04 3d 5e 3b 2e bd 19 fa 12 bd
       0.015730679 0.032246254 -0.042537086 -0.035883043
000180 b7 0d fd 3b 31 a9 c7 3c ad cb 33 bd 47 fd 92 bd
       0.007722582 0.024372669 -0.043895412 -0.07177215
000190 e0 83 d9 3d 6b be 6c 3d 01 04 7f 3d 62 df 37 bd
       0.10620856 0.057798784 0.062259678 -0.04489077
0001a0 b1 82 cc bc 79 86 af 3d 77 8e 6c 3d 51 2a 4c bb
       -0.024964662 0.085705705 0.057753053 -0.0031153152
0001b0 1a 9c 25 bd 92 33 1f bd 72 68 24 bd 41 03 eb 3c
       -0.040432073 -0.03886754 -0.04013867 0.028688075
0001c0 2b 63 30 3d 3c 28 81 bd 3f e6 2b b9 1c bc 91 bd
       0.043063324 -0.06306502 -0.00016393604 -0.07115957
0001d0 c7 83 d7 3c 04 77 48 bc eb da 2e bd 5f f0 14 bd
       0.026307954 -0.012235407 -0.042689245 -0.03636205
0001e0 75 4e 9f 3c 65 ce db bd ec f9 1c bc 2c b5 5f 3b
       0.01944659 -0.10732726 -0.00958107 0.0034135086
0001f0 fb 2a a8 bd fd e0 ab 3c 46 92 66 3d bd 0f d8 3d
       -0.08211323 0.020981306 0.05629184 0.10549877
000200 10 17 94 3d 21 84 bf 3d 8b 69 c9 3d 46 ac be 3d
       0.07230961 0.093513735 0.09834584 0.09310202
000210 8b 9e 01 3e 09 1b 01 3e 44 06 9c 3d e6 b5 2a 3d
       0.12658136 0.1260797 0.076183826 0.041677378
000220 a6 82 86 3d 56 13 fe 3d d9 6f 45 3d 46 5f 4b 3d
       0.06567888 0.12406032 0.04820237 0.049651407
000230 b6 94 8f 3d 12 a9 5c 3d 2e 3d c2 3d bc 40 f4 3d
       0.07010786 0.053872176 0.09484325 0.119264096
000240 5f 15 52 3d 8b 6b 56 3d 02 c6 4f ba f1 7a 9a 3d
       0.051289912 0.052348655 -0.0007925929 0.075429805
000250 36 9e 1c 3d 2f f6 a4 3d 80 11 31 bd 88 5b 34 3d
       0.03823682 0.08054768 -0.04322958 0.044032604
000260 d7 e7 85 3d c4 79 2c 3d 45 34 4b 3d 4f a6 8a bd
       0.065383606 0.042108312 0.049610395 -0.06770002
000270 8e 51 d7 3c 3f bc 9c 3d ea 83 07 3c ae c0 57 3d
       0.026284005 0.076530926 0.008271197 0.052673988
000280 2a 74 8c bd f8 3a 15 bd 1b 7d 1b 3c 1f 6c 80 bc
       -0.06858094 -0.03643319 0.009490277 -0.015676556
000290 4a 7d 84 3c b1 79 ea bd 6e e5 7d bd d9 d0 1f bc
       0.016173024 -0.11448992 -0.06198638 -0.009754383
0002a0 40 5e b3 bc 3f 43 ee bc 14 09 1c be 0b 94 99 bd
       -0.021895528 -0.0290848 -0.15237838 -0.0749894
0002b0 8a af 79 bd e5 e8 94 bd da f4 e9 bc 69 ff 0f be
       -0.060958423 -0.072709836 -0.028559137 -0.14062275
0002c0 84 67 48 bd 18 1f 0d 3a 75 c7 93 bc 13 db a1 3d
       -0.048926845 0.00053833565 -0.018039444 0.07903113
0002d0 7f 2f 90 bd 29 57 72 bd 8c 9c d5 bd 06 46 3c be
       -0.07040309 -0.059165154 -0.104302496 -0.18386087
0002e0 73 d5 74 3d 41 ee 0a be 3a 1a 72 bd b1 70 13 bd
       0.059773874 -0.13567449 -0.059107043 -0.035996143
0002f0 93 dc 32 bd 00 4c d2 bd 91 92 00 bd 12 26 b0 bd
       -0.043667387 -0.10268402 -0.031389777 -0.08601011
000300 2d 70 d9 bd ca 96 2f be 50 a3 a2 bd eb 01 e1 bd
       -0.10617099 -0.17147365 -0.07941306 -0.10986694
000310 d7 e5 9b bd 88 c1 2e be cf 23 16 be 59 56 49 3c
       -0.07612198 -0.17066014 -0.14662097 0.012288653
000320 69 25 d7 bd 11 4b 46 bd aa 1d 1e bd 34 61 72 bd
       -0.10505182 -0.048411433 -0.03860251 -0.05917473
000330 eb 7f 8a bd 55 05 a0 bd f5 6a 57 bd ef ff 70 bd
       -0.0676268 -0.07813517 -0.052592237 -0.058837827
000340 3c 52 db bd 64 58 a5 bd c7 a8 68 bd f0 7d 8f bd
       -0.10709044 -0.080735 -0.056801584 -0.070064425
000350 bd ca ac bd 0a 22 ac bd 1d 54 8d bd bd 5b ce bb
       -0.08437107 -0.0840493 -0.06900809 -0.006297557
000360 f7 ec 2f bd 06 19 96 bd ef f2 62 bd bd 56 1a bc
       -0.042950597 -0.073289916 -0.05540746 -0.009420094
000370 40 eb 95 bc 03 1a a0 bc 52 4b ff bc d0 c4 ff bc
       -0.018300653 -0.019543653 -0.031163845 -0.031221777
000380 d5 41 76 bb ee da 8d bc b3 e2 2f 3a 86 8d e3 bb
       -0.003757586 -0.017316308 0.0006709501 -0.006944361
000390 cb 3c a5 3c 21 0f 81 3c 05 87 79 3b dd 2b 77 bc
       0.02017059 0.015754284 0.0038074863 -0.015086141
0003a0 7e 27 66 3c 7d 43 bc 3b 2f 6b a1 3c 74 17 c0 3c
       0.014047502 0.00574535 0.01970443 0.023448683
0003b0 6a 12 e2 3c 43 80 ad bb 72 92 88 3c 25 70 eb 3c
       0.027596671 -0.005294831 0.016671393 0.028739998
0003c0 9c 24 23 bd 05 59 3e bd 84 d2 4f 3c 52 fc e5 3c
       -0.039829835 -0.046471614 0.012684468 0.028074417
0003d0 25 7b 40 bc e8 00 20 bd a0 2e 06 bd 0c 14 a6 bc
       -0.01174811 -0.039063364 -0.03275931 -0.020273231
0003e0 eb 84 25 bd 41 94 de bc 81 a7 da bc 58 85 5c 3d
       -0.040409964 -0.027170302 -0.0266912 0.053838104
0003f0 fc 9a ad 3d 38 b4 86 3d 92 15 e9 3b 42 9e 1c bc
       0.084768265 0.06577343 0.007113167 -0.009559216

fc1.bias f4 [120]
000000 2c 49 8d 3c df c7 57 bd 69 be 97 bc bd dc 9e bd
       0.017246805 -0.052680846 -0.018523412 -0.07756946
000010 fb 5a 76 bd b0 c9 93 3d 95 ec 10 3d 9f 96 f6 bd
       -0.06014536 0.07216203 0.035381872 -0.120404474
000020 57 de 8a bd 81 f2 03 3d c8 3b 87 3c cf ae cf 3c
       -0.06780689 0.03221369 0.016507998 0.02535191
000030 7b 81 08 3d 1e 49 b9 bb 47 97 51 be b3 a9 f0 bb
       0.033326607 -0.005654468 -0.20467864 -0.0073444485
000040 fa 73 f1 39 a5 8c fa bd 5e 82 18 be 3d e1 28 be
       0.0004605351 -0.12233857 -0.14893481 -0.16492172
000050 3d 8f 96 bd ad c0 0f bd 4c 30 47 3c eb 89 90 bd
       -0.07351539 -0.03509586 0.012157511 -0.07057556
000060 89 40 29 bc 16 00 0b bd 6b 0f 08 3d 82 20 2e 3d
       -0.010330328 -0.03393563 0.03321783 0.04251147
000070 a9 92 c2 bc 0b cc 9d bd 8f 69 9b bd 21 ce cc bd
       -0.023751574 -0.07704934 -0.07588493 -0.100002535
000080 df 5a 1b bd b2 11 5d be c8 fb d8 bd cb d6 ca 3c
       -0.03792846 -0.21588781 -0.105948985 0.024760624
000090 ae 5b 1f 3c ac 8f 57 3c 93 35 d0 bc a5 2a 60 bc
       0.009726448 0.013156813 -0.025416171 -0.013682042
0000a0 49 91 34 bd 06 21 d6 3b 5f f4 b2 bd 93 8e ea 3c
       -0.044083867 0.0065346984 -0.08738016 0.028632438
0000b0 52 b3 9b bd fb 2b 3f be 37 3e dd 3b f9 78 e8 3c
       -0.07602562 -0.18669121 0.0067518014 0.028377997
0000c0 c9 0f b1 bb 20 46 5b bd d1 8e 9a bd b3 88 af 3d
       -0.005403493 -0.053533673 -0.07546771 0.08570995
0000d0 4b 97 5a bc da cc 7a bd 64 01 c3 bc e2 ff 1d 3a
       -0.013341735 -0.061230518 -0.023804374 0.0006027204
0000e0 81 4c c4 bd 07 46 7a 3c a9 38 f8 3b 88 c3 e3 bc
       -0.095849045 0.015275485 0.007575114 -0.027803198
0000f0 39 a8 43 be cd 06 ba bd 6e ac ee bd 6f 97 05 3e
       -0.1910714 -0.090833284 -0.11653982 0.13046049
000100 42 a8 99 bd 35 58 89 bd 07 ac b6 bb ed 34 14 3d
       -0.07502796 -0.06706277 -0.0055747065 0.036183286
000110 0e 1b 71 bd 26 73 e0 bc ea ab fc bc 23 99 4c 3d
       -0.058863692 -0.027398657 -0.030843694 0.04995073
000120 23 77 00 3c 03 5f fa bd a4 7b 74 3d 06 28 8e bd
       0.007840904 -0.12225153 0.059688225 -0.069412276
000130 1f 95 b2 3d f1 74 26 3c 4d e2 67 3d 4e e2 17 3c
       0.08719849 0.010159717 0.0566123 0.009270264
000140 eb 44 ea 3c c1 e4 d1 bc 8f 63 1e be bf 56 5e 3c
       0.028597316 -0.025621774 -0.15467666 0.013570487
000150 3e 22 16 3d ad bd e9 3b 46 8b 8d bd 2e cc 20 bb
       0.03665375 0.007133207 -0.0691133 -0.0024535763
000160 8e a1 d9 bc 0f ef b7 3b 5b 6e 01 3d 1d 27 2a bb
       -0.026566293 0.005613215 0.031599384 -0.0025963255
000170 d2 6d 05 3c e8 10 00 3c 72 14 26 bc e9 86 af ba
       0.008143859 0.007816531 -0.0101367105 -0.0013391647
000180 e2 06 79 bd 8e a0 0b 3d a9 1f b6 bc 61 96 98 bd
       -0.06079758 0.034088664 -0.022231894 -0.074505575
000190 68 61 f3 bd f9 f8 56 bd 66 f0 e0 bb 3b c1 28 3c
       -0.11883813 -0.052483533 -0.006864595 0.010299976
0001a0 aa a1 96 bd 1c 50 ce 3c b5 2f 12 bd 20 e4 9e bd
       -0.07355054 0.025184684 -0.03569003 -0.07758355
0001b0 7a 34 b8 bd bd 50 27 be 33 e4 de bb 61 b9 9a 3c
       -0.08994384 -0.16339393 -0.006802106 0.018887224
0001c0 bb dc 8d 3c 1f 69 91 bd 22 31 eb bd 6a 35 2c be
       0.017317167 -0.071001284 -0.11483981 -0.16817251
0001d0 44 02 f1 bd c9 96 ee 3c 15 d3 4a bd 15 06 8d bd
       -0.1176801 0.029124634 -0.04951771 -0.06885926

fc1.weight f4 [120, 1568]
000000 cd 10 9b bd 3b a2 f8 bd d0 ce 74 bd cb 93 7a 39
       -0.07571564 -0.12140318 -0.059767544 0.00023896915
000010 b2 c6 8b bd 8f 3f ee bd 75 da 25 bd 5b 7d fa bc
       -0.068250075 -0.116332166 -0.04049154 -0.030577352
000020 f1 1c 1e be ae 26 82 bd d4 ca a2 3c 6d 14 a8 bd
       -0.15440728 -0.06355034 0.019872107 -0.08207021
000030 bf da d2 bd 1f 67 ca bd 49 6b bd bc 28 4f 7d bd
       -0.10295629 -0.0988295 -0.023122447 -0.061843067
000040 87 73 42 3d bb 67 ce 3d 38 42 af 3c ee 9c 10 bd
       0.047473457 0.10078379 0.02139388 -0.03530591
000050 09 6b ff 3b a2 d7 f8 3a c6 b2 25 bc 20 6f 88 3d
       0.007794742 0.0018985162 -0.010113424 0.066618204
000060 13 b2 b2 3d d0 aa 25 3b de ad a3 bb 5e 4a 33 3c
       0.08725371 0.0025278814 -0.004995092 0.0109430235
000070 d1 db 0e 3d a7 f5 57 3d 89 99 f3 3d f6 87 53 3e
       0.034877602 0.052724507 0.11894519 0.20657334
000080 d7 9e 98 3c e6 f8 03 3d e0 1a 94 3d 2a ca b2 3d
       0.018630428 0.03221979 0.072316885 0.08729966
000090 9c 19 8e 3d bc 35 1d 3e 33 90 13 3e aa 1b 8e bb
       0.06938478 0.1535253 0.14410476 -0.004336794
0000a0 49 90 c4 bc a5 e0 9b 3d 2f 11 d6 bb fc 89 04 3d
       -0.023994582 0.07611207 -0.00653281 0.032358155
0000b0 73 70 70 3d 56 2a 55 3c 85 ec 95 bd 95 7c db bd
       0.05870099 0.013010582 -0.07320503 -0.107171215
0000c0 ff 90 46 bd 0b c7 22 bc 21 33 b0 3d 61 e3 66 bd
       -0.048478123 -0.009935151 0.08603502 -0.05636919
0000d0 c9 25 b9 bd bd 79 e1 ba cd 50 a7 3d d2 0c 6f 3d
       -0.0904041 -0.0017202419 0.081697084 0.058361836
0000e0 79 ef a3 bd cc ad 26 bd e8 46 c4 bd 1b 2f e0 bd
       -0.0800466 -0.04069309 -0.09583837 -0.10946485
0000f0 c4 25 82 bd 15 34 7c 3d 4e d2 8e 3c 7e d3 ef bd
       -0.063548595 0.061573107 0.017434265 -0.11710261
000100 cb 14 95 bd a4 76 4e bd 24 ff a6 3d cf f4 1f 3d
       -0.072793566 -0.050406113 0.08154133 0.039051827
000110 f2 34 09 3e 2e 67 aa 3d 46 96 26 be 40 2d 17 bd
       0.13399103 0.08320461 -0.16268262 -0.03690839
000120 e5 68 60 3d a3 cc c2 3d 49 90 e1 3d 6f 11 e5 3d
       0.054787535 0.095116876 0.11013848 0.11184966
000130 d2 44 cc 3d eb 50 f8 bd 92 b6 64 bd 38 5c ce 3d
       0.09974064 -0.12124809 -0.055838175 0.10076183
000140 df 17 13 3e 48 04 28 3e e4 31 a0 3d 1d c6 6c 3d
       0.14364575 0.16407883 0.07822016 0.057806123
000150 02 0b 91 bd a1 c7 58 bd 96 bf 90 3d f8 aa f2 3d
       -0.07082178 -0.052924756 0.07067792 0.11849016
000160 c1 3c a2 3d 36 92 17 bc c4 46 9e 3d 2e da 67 3d
       0.07921744 -0.009251168 0.07728341 0.056604557
000170 ab 04 ef 3c 0b bf 0c 3d 91 a6 b6 bc 9c 9c 9d bc
       0.02917703 0.03436188 -0.022296222 -0.019239716
000180 0c 0c cd bc 54 3d 41 3d 08 cb 1c be ba b8 26 be
       -0.025030158 0.047177628 -0.15311825 -0.16281405
000190 dd 18 c8 bd 9b 20 6c 3c 3a e8 89 3c 32 ae 95 bd
       -0.09770367 0.014412071 0.016834367 -0.07308616
0001a0 7d 0b 61 bc bd af 0e bd 6c 25 65 bd 32 ba 7d bc
       -0.013735649 -0.034835566 -0.05594389 -0.015486287
0001b0 6d c6 28 3e 37 ff c9 3d 0e 90 fa 3c 72 9c ca bc
       0.16481943 0.098631315 0.030586269 -0.024732802
0001c0 b7 65 e7 bb bd 10 6c bd 68 82 52 bd 86 0f c3 3d
       -0.007061686 -0.05763315 -0.051393896 0.09524445
0001d0 b6 07 bf 3d 98 0b 6f 3d 11 44 f9 3d 21 97 a5 bc
       0.093276426 0.058360666 0.12171186 -0.020213665
0001e0 e5 2a dd bc dd 91 ac 3c 28 7c b2 3d 6a 67 c9 ba
       -0.026997993 0.021065647 0.08715087 -0.0015365903
0001f0 53 53 e3 bc cc a3 e7 3d 5a ef 8a 3c d8 a7 13 3e
       -0.027749693 0.11310539 0.016959835 0.14419496
000200 ba 38 13 3e 3a 00 06 3e 1b fb c4 3a ed 5e a0 bd
       0.14377108 0.13086024 0.0015028449 -0.07830606
000210 ec d2 02 3e 4f 62 37 bd d2 87 ef 3d e1 e0 c2 3d
       0.12775773 -0.04477149 0.116958275 0.095155485
000220 26 3c c6 bc bd 0f 2d bd 26 d1 03 be 11 5a ed bc
       -0.024198603 -0.042251337 -0.12872753 -0.028973611
000230 97 1d b8 bd 2d 96 52 bc be 8e 9d bd bc b7 ae bd
       -0.08990019 -0.0128531875 -0.076932415 -0.08531138
000240 bb 66 a9 bd c9 4f 84 bd 25 14 00 3d 05 c7 62 bb
       -0.082715474 -0.0646053 0.03126921 -0.0034603488
000250 1d a2 0a bd a2 06 cc bc 52 0e 8f 3d 2a 5d c0 3c
       -0.03384601 -0.024905507 0.06985153 0.023481924
000260 72 cb 41 3d 0f 3b ce bc 83 11 ad bd d2 60 7c 3d
       0.04731316 -0.025174646 -0.08450606 0.061615773
000270 dd a8 a1 bd e6 40 8e 3d 4a 7d 60 3e 49 92 05 3e
       -0.07893536 0.06945972 0.21922794 0.13044085
000280 9d c9 ae 3c a5 e5 8b 3d 23 36 f2 bc a9 e8 a2 3c
       0.021336371 0.068309106 -0.02956683 0.019886332
000290 66 69 cc 3d c6 ea bb 3c fa 06 1d 3d 46 ca d2 bd
       0.09981041 0.022939097 0.03833673 -0.10292487
0002a0 6a 44 01 3c 0f 28 44 3e 8a 6e 1b be 32 69 dc bd
       0.007889846 0.19155906 -0.15178886 -0.10762252
0002b0 89 a5 88 bc 48 d1 d7 bd bf a4 59 3d 0f bc d9 bc
       -0.016680496 -0.10537964 0.05313563 -0.026578931
0002c0 12 9f 83 b8 db 06 bb bd f5 6e 31 be c6 49 74 bd
       -6.276196e-05 -0.09132167 -0.17327483 -0.05964067
0002d0 07 dd dd bd 4d 4c b1 3d f3 d4 3f bc 3c 93 d3 3c
       -0.10833173 0.08657131 -0.011708486 0.025827043
0002e0 4f ea 6b 3d 93 2b a4 3c 29 ee 9f 3d 72 ee 3c 3e
       0.0575965 0.020040309 0.07809097 0.18450335
0002f0 14 b3 b5 3d 8d 6a 9b bd 0a 47 86 bd 03 43 06 bd
       0.08872047 -0.07588682 -0.065565184 -0.03277875
000300 8b 79 1b 3c e1 8b 5d bd 8e 87 0d 3d a1 8c ae 3d
       0.009489427 -0.054088477 0.034553103 0.085229166
000310 c4 1d 22 3e a4 6c f6 3d 7f 58 89 3b 3e b9 14 be
       0.15831667 0.1203244 0.0041914578 -0.1452379
000320 2d 68 4c bd f9 eb 10 bd 05 67 4a 3d b5 db 1d 3c
       -0.049904037 -0.03538129 0.049414653 0.009634902
000330 35 3c e7 3c 57 6c c4 bd 59 90 14 be ff d3 d4 bd
       0.028226951 -0.09590977 -0.1450819 -0.103919975
000340 57 2c 96 be 63 39 da bd 95 68 b4 3c 4a d1 e6 3d
       -0.29330704 -0.10655477 0.022022525 0.112703875
000350 48 65 8b bd 9a 35 d1 bc 95 80 48 bd 21 6a 0e be
       -0.06806427 -0.025538255 -0.04895075 -0.13907672
000360 14 05 10 bd 6f 1d 83 bd 8f 27 2f 3e 60 06 d0 bd
       -0.035161093 -0.064020984 0.17104934 -0.10157466
000370 6a 2d 36 be e0 02 f9 bd 86 bd 8f bc 70 14 9a 3c
       -0.17790762 -0.121587515 -0.017546427 0.018808573
000380 76 89 22 be cd 58 90 bc 86 ab 8f bd e8 fe 69 3c
       -0.1587275 -0.017620469 -0.070151374 0.014281966
000390 77 03 10 bb 96 ed b8 bd f5 90 10 be 92 1e 8c bd
       -0.0021974721 -0.09029691 -0.14117797 -0.06841768
0003a0 d8 f1 95 bd 26 4c e7 bd 03 80 c9 bc f8 65 dc 3d
       -0.07321519 -0.11293821 -0.024597174 0.107616365
0003b0 36 ea 4c bd 6a e9 bf bc bd d5 69 3b f9 c3 fc bc
       -0.05002805 -0.02342673 0.0035680376 -0.030855166
0003c0 16 e2 e6 bd b0 7d 7d be db 95 1b be 0c d8 72 3d
       -0.11273591 -0.24754977 -0.15193884 0.05928807
0003d0 93 de 4a bd d8 3f 04 bd 90 cb d5 bd d8 b0 d8 bd
       -0.04952867 -0.03228745 -0.10439217 -0.10580605
0003e0 74 50 47 bc eb 01 c5 3d 29 84 71 3d 0a 78 ba bd
       -0.012165178 0.096195064 0.05896393 -0.09104927
0003f0 dd de 5f be 9d 3c c4 3c fa 2c 49 3e ee 04 6d 3e
       -0.2186236 0.023954684 0.19646063 0.23146412

fc2.bias f4 [84]
000000 03 15 74 3e 9a b2 3a 3d 20 70 eb bc 79 8b c7 bd
       0.2383614 0.045580484 -0.028739989 -0.09743399
000010 be 67 d4 bc 98 4a 5a 3e 41 ba 38 3e 8e f8 10 3d
       -0.025928374 0.21317518 0.180398 0.03539329
000020 61 3f 8c bd e0 db 00 3e 64 c8 98 3d 28 16 4a 3e
       -0.06848026 0.12583876 0.074600965 0.19735014
000030 ae c1 c7 3c 3e 2e d4 3d 45 08 0a be be f0 a6 bc
       0.024384346 0.103603825 -0.13479717 -0.020378467
000040 f9 97 0c be c3 03 fa bc c3 5e 8b bd 32 24 ae bd
       -0.13729848 -0.030519372 -0.06805184 -0.085029975
000050 1b 27 4e 3e af 9c 2a be a6 55 1a 3e 46 45 1d bd
       0.20132105 -0.16661333 0.15071735 -0.038396142
000060 ed 3e 76 3d 3d bf 3e bd 25 d1 11 3e 71 d5 83 3d
       0.060118604 -0.046569098 0.14239939 0.06437195
000070 73 e7 88 b9 66 9a c0 bc dc ac b8 bd 29 bb 04 be
       -0.00026112385 -0.023511123 -0.09017345 -0.12962021
000080 37 02 69 bd 06 16 31 3e 03 d5 49 3e 76 6f 3c 3e
       -0.056886878 0.17293558 0.19710164 0.18401894
000090 cf 73 1d bd db 04 c2 3d e4 80 2d 3d 44 26 01 bd
       -0.03844052 0.09473582 0.042359248 -0.031530634
0000a0 64 34 8a bd 80 48 84 bc b4 83 03 bd a7 97 53 3d
       -0.06748274 -0.016147852 -0.032108024 0.0516583
0000b0 4c ad 2f bd 9b ea 1f bb e1 94 06 3e 05 36 c2 3d
       -0.04288988 -0.002440131 0.1314273 0.0948296
0000c0 9a 2a 16 3e 4c 38 78 bd 40 1e 56 bc b4 3f da 3d
       0.14664689 -0.060600564 -0.013068736 0.10656682
0000d0 9c f2 90 3d 56 2d f9 bc da 99 8b bd 92 a4 70 3e
       0.07077524 -0.030417126 -0.06816454 0.23500279
0000e0 9b 5a 8c 3e 46 1b 78 3d ca 40 ba 3c bd 59 e7 3c
       0.27412876 0.060572885 0.022735972 0.028241033
0000f0 42 39 47 be 66 6c 21 be 54 b6 45 be 13 96 1f 3e
       -0.19455436 -0.15764007 -0.19307834 0.15584593
000100 44 73 fe bc ee 77 97 3d ff e6 ec 3d 53 16 43 3e
       -0.031060822 0.07395922 0.115674965 0.19051485
000110 67 e5 ad bc 36 10 d0 bd 80 b2 32 3e 83 d5 a9 bd
       -0.021227552 -0.10159342 0.17450905 -0.08292677
000120 41 62 2b be 29 d2 a2 bb 7e 5d b9 3d d0 64 7c bc
       -0.167367 -0.0049689007 0.09051035 -0.015404895
000130 34 07 2a bd d4 df d7 bb e8 85 35 3d 30 14 73 bb
       -0.041510776 -0.0065879617 0.044317156 -0.003709089
000140 ab ad 09 be aa 58 a3 3d 03 02 0e 3e ce e9 8e bd
       -0.13445155 0.07975896 0.13867955 -0.069781885

fc2.weight f4 [84, 120]
000000 f5 37 e8 bc 10 e6 f6 bd a0 c0 e9 3c 12 f5 8f 3d
       -0.028346995 -0.120556 0.028534234 0.07029165
000010 f0 92 0c be 56 7a b2 3d 6c f8 2c be 4a dd c9 3c
       -0.13727927 0.0871474 -0.1689164 0.024641652
000020 a1 c6 63 3d 4c 41 c9 3d f5 15 c4 3c 72 19 03 3e
       0.05560935 0.098269075 0.023936251 0.12802675
000030 8f 85 93 3d 91 dc 52 3d 5a 09 4d 3d 1e 33 40 3c
       0.07203209 0.05147988 0.050057746 0.011730937
000040 e5 46 eb 3d cf 75 8d 3d 89 5c c0 ba f6 a0 00 3e
       0.114881314 0.06907236 -0.0014676015 0.12561402
000050 84 db 81 bd 82 42 25 bd d4 a4 9d bb 4e c3 a2 bd
       -0.063406974 -0.04034663 -0.004810909 -0.07947408
000060 a0 a3 3e bd 54 4e 1a bd d6 4a 3f bc 36 94 3d be
       -0.046542764 -0.037672356 -0.011675557 -0.18513569
000070 ef 79 05 bd 98 90 3e 3e 90 64 8d bd 15 59 5c bd
       -0.032586988 0.18609846 -0.069039464 -0.053795893
000080 26 99 a9 bd b8 da 48 bc 2c 08 02 3e a5 e7 27 be
       -0.08281164 -0.012259178 0.1269843 -0.16396959
000090 2b e5 c9 3c f3 89 30 bc ab e0 47 be 6e 99 08 bc
       0.024645409 -0.010775077 -0.19519298 -0.008337362
0000a0 71 af 7d 3a 41 01 54 3d 41 63 22 bd 2c fd be 3c
       0.0009677327 0.05175901 -0.039645437 0.023314081
0000b0 8f a2 d9 bd c4 5f 91 bd 36 3f c4 bd 98 88 7f 3c
       -0.10626709 -0.07098344 -0.09582369 0.015596531
0000c0 4a 1c 60 3e 3e 67 2f 3d 80 38 6b 3e c3 79 af bb
       0.21885791 0.04282307 0.22970772 -0.0053550913
0000d0 a8 8c aa 3d 08 f5 93 bd 4f 0c 10 be 85 24 c9 bd
       0.08327609 -0.072244704 -0.14067195 -0.09821419
0000e0 56 8c 4a 3d 3f 18 07 be 58 f3 0c bd bf 03 12 be
       0.04945024 -0.13192843 -0.03441176 -0.14259242
0000f0 5c 24 a5 bd 56 a2 ab 3d 24 5e db bd 86 21 bc 3d
       -0.080635756 0.083805725 -0.10711315 0.091860816
000100 10 c2 88 bc e4 3b 9d bd 58 56 c9 3b 04 fd 66 bc
       -0.016694099 -0.07677439 0.006144326 -0.01409841
000110 85 9c a8 3c 33 1b 11 bd cf ed 99 3d 1f 34 04 bc
       0.020582447 -0.03542633 0.075160615 -0.008069067
000120 3b c2 38 3d 8e 35 a1 bd 01 cb 39 3e 33 1e 6b 3e
       0.045107108 -0.07871543 0.18143846 0.22960739
000130 38 72 93 3d 9f 79 8b 3c 4c 40 bb 3d d8 a0 3e 3d
       0.0719952 0.017025767 0.09143123 0.04654011
000140 f2 1e 4f 3d 2c b6 73 bd 16 16 4d bd d2 12 47 3d
       0.05056662 -0.059499905 -0.05006989 0.048601933
000150 89 64 10 be 9e 07 31 bd d3 71 72 bd 6b 4f ae 3d
       -0.14100851 -0.043220155 -0.059190582 0.085112415
000160 16 21 cf 3a 77 fe b4 bd ce 20 91 3d 9d 47 c4 3c
       0.0015802707 -0.08837598 0.07086335 0.02395993
000170 16 13 88 bd 8c c9 0b bd dd 30 74 bd 1c e5 bb 3c
       -0.06644265 -0.034127757 -0.059616912 0.022936396
000180 60 a8 b1 3e fd 4e 23 bd 1f a4 e5 bb 1e 3a 77 bd
       0.34698772 -0.03987025 -0.00700809 -0.06035816
000190 8e b8 46 be e4 59 2e bc 8e 8f 80 3c 62 a2 1b 3d
       -0.1940634 -0.010641549 0.015693452 0.037996657
0001a0 aa 0a cc b9 6e 70 2e bd cc e6 00 bc 4f ff 9f 3e
       -0.00038917857 -0.04258769 -0.007867526 0.31249472
0001b0 0d 21 0a be f6 09 16 3b c1 d6 2d bd 0a 72 01 be
       -0.1348917 0.002289412 -0.042441133 -0.12641159
0001c0 c7 8e 6f 3e 51 0d 45 3d b6 2d 31 bd 9c 5d 34 3d
       0.23394309 0.048108403 -0.043256484 0.044034585
0001d0 48 70 c4 bd e4 87 20 3a 91 85 23 3e aa 10 04 3e
       -0.095917284 0.0006123765 0.1596892 0.12896982
0001e0 50 10 60 be 65 f2 b5 3d bb 9d 47 be 9b 9e 0d 3d
       -0.21881223 0.08884124 -0.19493763 0.034575086
0001f0 3b 2c fd 3d 35 e1 a1 3d a4 5c e4 3c d8 5c 02 3e
       0.12361952 0.07904283 0.027876206 0.1273073
000200 28 78 c0 3d 0a 5c 7b bb 2c f1 7e bb c1 de e7 3c
       0.09397918 -0.003835442 -0.0038901074 0.02830446
000210 e3 d3 ca 3b 24 98 2a 3d 43 c0 5f 3d 50 74 8d bc
       0.0061898096 0.041649 0.054626714 -0.017267376
000220 70 4c 82 bd 51 ce 68 3e 34 6e 5f 3c da 6f 2c bd
       -0.063622355 0.22734953 0.013637114 -0.042098857
000230 9d d9 e6 bb cb 8a 9e bd 2d 17 2f be e2 76 d1 bd
       -0.0070449845 -0.077413164 -0.17098685 -0.10227753
000240 87 45 a5 bd 35 64 eb bd 9d 75 cd 3b c0 40 ff bd
       -0.08069902 -0.11493722 0.006270124 -0.12463522
000250 77 c4 4a bd 80 ae 6d bd 0a 80 53 bd 3c a3 35 be
       -0.04950377 -0.058027744 -0.05163578 -0.1773805
000260 18 bc bf 3c f4 a0 51 3d 20 3b e4 bd a6 a8 ad bc
       0.02340512 0.051178887 -0.1114409 -0.021198582
000270 ee db 16 be 26 4c 68 bd af c6 36 bd 45 5d c7 bc
       -0.14732334 -0.056713246 -0.044623073 -0.024336467
000280 9d 27 8a 3c c7 28 ac 3b 0d 5b fd 3d 14 07 17 3e
       0.016864592 0.0052538845 0.12370882 0.14748794
000290 e3 94 79 bd 74 76 09 be 95 26 fa 3d 2a eb 8f bd
       -0.060933005 -0.13424093 0.1221439 -0.07027276
0002a0 a3 4d 29 3e 37 19 29 be c9 c0 02 be 3f a0 bf bd
       0.16533522 -0.16513525 -0.12768854 -0.093567364
0002b0 2f a3 13 3d b6 1c 40 bc b2 09 ff bd c4 5b 81 bd
       0.036044296 -0.011725595 -0.12453021 -0.06316331
0002c0 f8 0c 76 bd e7 6b 82 bb 15 f1 f0 bc 16 d5 f9 bd
       -0.06007096 -0.003980148 -0.029411832 -0.12198846
0002d0 b5 fb 85 3e 3a 61 9d bd 96 48 72 bc ec 2c 81 be
       0.261686 -0.0768456 -0.014787814 -0.25229585
0002e0 29 42 5f bd f7 92 ec 3d ce 2c 0a 3d 06 8e 81 3e
       -0.054506455 0.11551469 0.033734135 0.25303668
0002f0 2e 4f bd 3d 75 71 c3 bc 07 ed a8 bb 0a 72 4d bd
       0.09243618 -0.023857811 -0.005155209 -0.050157584
000300 50 2c 8f 3b fd a1 c1 bd 6d fb 3f 3d 00 fe 31 3e
       0.004369296 -0.09454725 0.046870638 0.1738205
000310 46 48 f2 bc 55 45 dc 3d b3 3a 38 be 80 b8 a1 bd
       -0.029575478 0.107554115 -0.17991142 -0.07896519
000320 13 c3 ac 3d e3 db 8a bd e0 1e 2b 3d f4 ba 35 3d
       0.08435645 -0.06780221 0.04177749 0.044367746
000330 a7 f4 f3 bd cc 7e 03 be a2 e4 dc bd d4 56 b7 3d
       -0.11911898 -0.12841338 -0.10785796 0.08952108
000340 0d 21 08 be 78 01 d2 ba 44 8f 36 bd b2 db 8c 3d
       -0.13293858 -0.0016022166 -0.044570222 0.06877841
000350 a5 a4 96 bd 75 38 13 3c 8a 64 39 bd 9f 3e a1 3d
       -0.07355622 0.008985628 -0.045261897 0.07873272
000360 c8 34 24 3e 36 01 44 3c 50 21 40 3d 98 81 ca bc
       0.1603576 0.011963179 0.04690677 -0.024719998
000370 17 4a bb 3d ae 85 42 3e 75 d5 ae bd 70 74 54 bd
       0.09144991 0.18996307 -0.085368074 -0.051868856
000380 84 ff 21 3e c9 45 50 bd 5d 74 12 3d 34 bf e8 bd
       0.15820128 -0.050847802 0.035755504 -0.11364594
000390 b1 7a f8 bb 39 39 12 3d ec 42 8f bd 53 8e ec bc
       -0.0075829853 0.035699103 -0.06995186 -0.02887646
0003a0 92 ba 5a bc e5 1c f7 bc 7c 79 a8 3d 52 43 17 3b
       -0.013350146 -0.030165145 0.08226296 0.0023080898
0003b0 35 aa 3b bd d6 e1 d2 3c 6d 7f 36 bd cc 7b 42 bb
       -0.04581662 0.025742453 -0.044555116 -0.002967584
0003c0 e4 20 de bd 2d 69 73 3e 53 77 b4 bd 3f 6f 1c bd
       -0.10846117 0.2377059 -0.08811822 -0.03819203
0003d0 61 63 de 3a b3 3d 50 bd 23 7d aa 3d 48 f6 4f bd
       0.0016966873 -0.05084009 0.08324649 -0.05077198
0003e0 3c 42 31 be b5 e6 08 bd 99 86 b5 bd aa 83 49 3d
       -0.17310423 -0.033423144 -0.08863563 0.04919783
0003f0 3a c0 83 3c ac 1a 04 be f4 47 6b 3d 7e 99 78 bc
       0.016082872 -0.129008 0.057441667 -0.015173314

out.bias f4 [4]
000000 0f 43 1b bd 56 24 0b be 48 0d 2d 3d a9 88 cb 3d
       -0.03790575 -0.1358808 0.042248994 0.09938175

out.weight f4 [4, 84]
000000 5c d4 87 3d 3d 95 02 bd 4e 57 78 3d 52 72 70 bd
       0.06632301 -0.031880606 0.060630135 -0.058702774
000010 02 40 8d 3d 7f a2 db 3d d9 6b a7 bd 8d 5e c6 3d
       0.06896974 0.10724353 -0.08174867 0.09686003
000020 6d 34 47 3d 7f 6d 0d be 7a e7 a8 bd 61 96 91 3d
       0.04863398 -0.138113 -0.08247276 0.071087606
000030 63 26 54 bc 21 a1 6f 3d 5e 13 9e bd 42 81 30 3d
       -0.012948605 0.058503274 -0.07718538 0.04309202
000040 69 cb 44 3b b7 df 66 3d 31 aa db bd de aa 67 3d
       0.0030028468 0.056365695 -0.10725821 0.056559436
000050 2e f5 fb bc f8 1a 2d bd 60 09 18 be 28 df ac 3c
       -0.03075656 -0.042262048 -0.14847326 0.021102503
000060 bb 98 21 3e 22 66 dc 3c a8 e9 16 ba f1 cf bd 3d
       0.15780918 0.02690417 -0.00057568634 0.09268177
000070 32 8f c3 3b b1 44 e4 3b fc fa 14 3d 03 7f b6 3d
       0.005967998 0.0069661965 0.03637217 0.08910944
000080 3d f1 54 3d 1f 26 87 3d bd b8 13 be 08 23 0e be
       0.051987875 0.06599068 -0.14425941 -0.13880551
000090 81 eb 0e 3d 19 4d ab 3b f1 ab 06 3d 7b 90 31 bc
       0.034892563 0.0052276966 0.03287882 -0.0108376695
0000a0 8e e1 80 bd 75 a4 7c bd 6b a5 2d 3d a2 4e 3e bd
       -0.06293021 -0.061680276 0.042394083 -0.04646171
0000b0 33 3c 67 3d d4 78 3c 3d c3 15 a1 bd 4e 51 f8 bd
       0.056453895 0.04601367 -0.07865479 -0.12124883
0000c0 85 bc 28 bc a5 3c df bc 4d d4 f9 3c bb 60 db 3d
       -0.010298853 -0.027250597 0.03049674 0.10711809
0000d0 bc a8 4d be ad 9b 90 bd f2 1f 7d 3c 68 4a 30 bd
       -0.20083898 -0.07060943 0.015449511 -0.04303971
0000e0 0a 3c 2f be 7c 24 c1 bc 6f e0 bd 3c eb 72 69 3c
       -0.17112747 -0.023576967 0.023178307 0.01424859
0000f0 ef 09 c6 3c fe c1 65 3d 93 28 9c 3c 7c c3 59 3c
       0.024174659 0.05609321 0.019062316 0.013291236
000100 48 0e b7 3d 7b f3 3a 3d a4 22 34 3d 09 61 f7 bd
       0.08938271 0.045642357 0.04397835 -0.12079055
000110 09 df 6a 3d ba 6a 11 3d ea fa 83 bd 74 20 c2 bd
       0.05734161 0.035502173 -0.064443424 -0.09478846
000120 7f 53 4c be a4 07 e6 3b 77 76 94 3d 99 18 a7 bc
       -0.19953726 0.007019954 0.07249158 -0.020397471
000130 28 b7 c3 bd 83 7c 97 3d 65 a3 08 be 5c cc 10 bd
       -0.09556419 0.073967956 -0.1334358 -0.035351142
000140 77 31 86 bc bf 76 b2 bd b7 32 06 bd 4e 39 bf 3c
       -0.016381009 -0.08714055 -0.03276321 0.023342755
000150 97 47 f0 bd 0b e3 8c 39 d6 d2 8c bd c1 c0 88 bd
       -0.11732405 0.0002687204 -0.06876151 -0.0667739
000160 82 06 af 3d a1 20 dd bd d4 ce d1 3d 9a cf 4d 3d
       0.08546163 -0.10797239 0.102445275 0.050246812
000170 2c 29 b0 3d 53 38 3b bd 55 48 cb 3d 8f 49 bb bd
       0.08601603 -0.04570801 0.099259056 -0.091448896
000180 b1 7e 74 bd 56 e1 b6 3c d8 8f c3 bb f3 3d ab 3c
       -0.059691135 0.022324245 -0.0059680752 0.020903563
000190 28 60 ec bd 79 b0 15 be 6f f5 dc bd f6 b6 9b bd
       -0.11541778 -0.146181 -0.10789 -0.076032564
0001a0 6f bc 53 be 9a 62 26 bd 3c 29 37 3e cc 9f 96 bc
       -0.2067735 -0.040621378 0.17886823 -0.018386744
0001b0 6d e0 ba bc 76 21 18 3d 51 b8 10 be 2a e8 07 3e
       -0.022812093 0.037141286 -0.14132811 0.13272157
0001c0 37 e5 78 bc 6c 36 13 bd c7 aa 3d 3d ce 3e ab 3d
       -0.015191368 -0.035940573 0.046305444 0.083615884
0001d0 1a 1b c9 bc c8 4f 2a bd 24 65 01 bd 97 3e d5 3d
       -0.024549056 -0.04157999 -0.031590596 0.10412329
0001e0 f2 0f 01 bd 77 09 cc 3d df ae 5a 3d ad f8 30 bd
       -0.031509347 0.09962743 0.053389426 -0.043205906
0001f0 d2 c7 de bd 72 ef 23 3d 9d 11 87 3d 3d c4 91 be
       -0.108779564 0.040023275 0.06595156 -0.2847003
000200 11 ba 8a 3d d0 f5 4d 3d c4 83 81 3c ac 47 d7 3d
       0.067737706 0.050283253 0.015809901 0.10511717
000210 19 af a8 bd 69 77 be 3c 47 42 a7 3d ff 49 f5 3d
       -0.08236522 0.023250299 0.08166938 0.11977004
000220 8b 4a a9 3d 36 10 8c bd 95 92 ed 3c ab 32 34 be
       0.08266171 -0.068390295 0.02900056 -0.17597453
000230 1a a7 1f be 26 c7 cf bc 9f 6a 36 be fd 18 4f 3d
       -0.15591088 -0.025363516 -0.1781411 0.05056094
000240 ec 17 eb 3b 87 69 21 bc 83 a0 46 3d ea 0a 52 be
       0.0071744826 -0.00985182 0.04849292 -0.20511976
000250 46 f4 bc 3d aa 2b 02 3d 3f f6 85 be 6b bd de 3b
       0.09226279 0.031779923 -0.26164433 0.0067974827
000260 bd 9a ca bc 70 f1 0b 3d f7 03 a8 3d 9e 1e a6 bd
       -0.024731988 0.0341658 0.08203881 -0.081113085
000270 36 62 fd bd 0d af 47 3c 05 53 95 bc 78 7f 9b bd
       -0.12372248 0.012187731 -0.018228063 -0.07592672
000280 b5 cc 12 be ec 67 df bc 50 e9 93 bd 9c bd ce 3b
       -0.14335902 -0.027271233 -0.07222235 0.0063092243
000290 72 b4 1c 3b 3a 9b c6 3d 2a 5e 1d be ba 34 39 3d
       0.0023911265 0.09697576 -0.15367952 0.0452163
0002a0 05 c6 ce 3d de ba 81 bd c2 0d 86 3d 0b a8 b0 bc
       0.10096363 -0.0633447 0.06545593 -0.021564504
0002b0 ab 37 76 bd 39 da e9 3d 94 ee 8a bd 18 b0 64 be
       -0.060111683 0.11418576 -0.067837864 -0.223328
0002c0 5d 2c 6b bb 1b ad db 3d a2 3c 2a bc 22 76 5f 3d
       -0.0035884597 0.107263766 -0.010390433 0.05455602
0002d0 7b 3b 8c bd 50 62 be bd bf 8c c1 bd 81 55 1a 3d
       -0.068472825 -0.09296095 -0.09450673 0.0376792
0002e0 ba 4e ab 3d bc f6 ae 3d d3 b7 91 3a 63 0e a0 3d
       0.08364625 0.085431546 0.0011117406 0.07815244
0002f0 1e ea 96 3d f6 50 bc bc 15 ea b8 bd 9b 8b cd bd
       0.07368873 -0.022987824 -0.090290226 -0.10036393
000300 e5 91 c1 bd 0e 57 bd 3d 0d 9e f9 bb d1 a2 25 be
       -0.09451655 0.0924512 -0.007617718 -0.16175391
000310 fc ce 0c bd d1 06 23 be bf f3 23 3d ab b3 e4 bc
       -0.034377083 -0.15920569 0.040027376 -0.027917704
000320 39 af 8b bd 87 e2 9a 3d b4 5b e1 3d 50 34 83 3d
       -0.068205304 0.07562738 0.11003819 0.06406462
000330 b1 7c 2c bc 74 55 02 3e aa 49 c5 bd 4b c9 b7 bc
       -0.010527776 0.1272791 -0.09633191 -0.022434851
000340 03 85 1d bd 1b 6d bd 3d 84 ad 3a be e6 92 e6 3d
       -0.038456928 0.09249326 -0.18230253 0.112584874
000350 a3 9e 4f bd fd 42 15 bd a8 f5 83 bd 8e 43 36 3d
       -0.050688397 -0.036440838 -0.064433396 0.04449802
000360 49 8a 99 3d cd 8a 9b bd e3 af 2e be b2 cf a8 3d
       0.07497079 -0.075948335 -0.17059283 0.0824274
000370 ed b1 80 3d 5e 1a c5 3c a8 c6 00 ba 56 b4 96 bd
       0.06283937 0.024060424 -0.00049124146 -0.07358615
000380 8d 8b 3f 3d e0 37 e5 3d d3 24 57 ba 7d 91 f9 bd
       0.046763945 0.11192298 -0.00082070864 -0.12185953
000390 9d 94 0f be b5 5b 46 3d fe 71 3c be 51 6c 08 3d
       -0.14021535 0.048427302 -0.1840286 0.033306424
0003a0 25 5d 93 bd bc 67 88 bc 4c 0a 6a 3d bf 17 88 3c
       -0.071955 -0.016651027 0.057138726 0.016612886
0003b0 80 54 8c 3d 85 73 cb bb 98 71 d5 3d 81 07 da bb
       0.068520546 -0.0062088394 0.10422057 -0.0066537266
0003c0 2b de ff bd f4 27 b1 bd c8 ad cf bd 37 60 0b bd
       -0.12493547 -0.086501986 -0.10140568 -0.034027305
0003d0 4b e2 d0 bc 2f f8 5a 3d 22 9c 8d 3c 6b dc e1 bd
       -0.02549853 0.053459343 0.017286364 -0.110283695
0003e0 ca 80 40 be c4 d8 07 bd 72 e1 58 bd d6 d1 c9 bd
       -0.18799129 -0.03316571 -0.052949376 -0.09854476
0003f0 b4 bf 5a 3c 4d 3a ca bd 83 ec 8a 3d de d6 8f bc
       0.01335137 -0.09874401 0.06783392 -0.017558511
