yolo_config/BTLnet/emilynet_2828.onnx (onnx, 917773 bytes, 10 tensors)

1 f4 [32, 3, 5, 5]
0.040682252 -0.11223114 0.012073966 -0.08571073 -0.062002346 0.022215107 -0.19971025 -0.1453808
0.03375748 -0.017054139 -0.05969674 -0.19807146 0.060248222 0.021725275 -0.09324779 0.09928494
-0.09431798 0.0009789619 -0.018790111 -0.025149096 -0.023851061 -0.07101509 0.023871506 -0.019690108
0.015125631 0.029618854 -0.16818134 -0.0063234614 0.012307851 -0.058572296 0.09125065 -0.16479924
-0.04685996 -0.12087887 0.07337946 0.0793469 -0.13944313 -0.15144533 -0.14919789 -0.016329762
-0.002509582 -0.011702249 -0.098680355 -0.075992465 -0.1311914 -0.11138958 -0.16144465 -0.111185394
-0.024359351 0.02300638 0.04653348 0.015122304 -0.04093302 -0.037586983 0.0057192636 0.09393889
0.022714049 -0.08384721 -0.06609746 0.027517328 -0.08875325 -0.04525958 -0.07727459 -0.066004194
-0.0013924427 0.013186699 0.03165722 -0.005328569 0.010170503 0.004313173 -0.045091975 -0.06856407
-0.13334978 -0.062051207 -0.09433661 -0.07873372 -0.0074028126 0.047717273 -0.10502927 -0.08665872
0.036484476 -0.14264035 -0.09114049 0.032535523 -0.0037455612 0.0040162783 -0.03156413 -0.07386041
0.037678033 -0.079511054 -0.038932513 -0.1352974 -0.043544386 -0.06339215 -0.07426088 -0.112695426
-0.068933226 -0.07363403 0.05268528 0.025971347 0.08566823 -0.078129835 0.08689445 0.027178654
0.0378563 0.018355183 0.003031598 -0.04145412 0.0060489406 -0.0019185692 -0.08984968 -0.01427803
-0.010301733 0.01816335 -0.11206232 -0.046660017 -0.073065005 -0.04995607 -0.14343017 -0.058743387
-0.058949795 0.05983972 0.049468372 -0.04785572 0.020657763 0.1257724 0.028708104 0.07989235
-0.107619986 0.07794579 0.10640622 -0.0760842 0.05604091 0.04344426 -0.0510992 0.11017264
0.10083707 -0.06302358 -0.075202614 0.07607686 0.013933295 0.10209494 0.09621527 -0.094204135
-0.11619806 -0.11085034 0.03639095 0.019205 -0.100598164 -0.021264378 -0.1046566 0.077454366
0.05751081 -0.13293937 0.07555883 0.021509398 -0.087353885 0.028592156 -0.051073246 -0.089751154
0.057268173 0.019154713 0.022048272 -0.13499613 0.033304945 -0.13253424 -0.05935286 0.052320708
0.08327394 -0.05704363 -0.11730256 -0.122692175 -0.026247364 -0.037659112 0.0500195 0.0791361
0.057515472 0.011751175 -0.095448405 0.025990821 -0.0027624508 0.046113186 -0.09602948 0.09214642
0.079603545 -0.0055334093 -0.09776131 -0.07688018 0.04412771 0.010345331 0.04880251 -0.05156218
0.0874074 0.08497486 -0.008170548 0.07011999 0.04085706 -0.08925626 0.0742898 0.043725826
-0.06985242 -0.12440448 -0.1146462 -0.049720462 -0.020190125 -0.048740935 0.061372582 -0.0701785
-0.05195931 -0.029399551 -0.080352716 0.0042474433 0.058257073 -0.10446395 0.06381543 -0.084809944
-0.03137072 -0.065740556 0.05859375 0.016259981 0.013032074 0.090053126 0.061626405 -0.03646983
-0.047768243 -0.09937277 -0.0683476 0.08370193 0.001338285 -0.03162504 -0.087123804 -0.06823786
-0.0028083362 0.0058334055 0.073900186 0.03133639 0.07935656 -0.02396298 -0.11421294 -0.10302486
-0.00827225 0.0041635004 -0.09604044 -0.08681994 0.046082675 -0.0023242729 -0.10129604 -0.084471345
-0.08253829 -0.009508738 -0.0049646585 -0.08457668 0.008329989 -0.07884777 -0.0016563983 -0.00196659
00000000: 6fa2 263d 71d9 e5bd e2d1 453c 1b89 afbd
00000010: 2cf6 7dbd 75fc b53c d880 4cbe b4de 14be
00000020: 4945 0a3d 1fb5 8bbc 9284 74bd 3fd3 4abe
00000030: d7c6 763d 34f9 b13c b3f8 bebd e755 cb3d
00000040: c929 c1bd 8350 803a b8ed 99bc 7a05 cebc
00000050: 4d63 c3bc 5c70 91bd 2d8e c33c 264d a1bc
00000060: 7fd1 773c 3da3 f23c bb37 2cbe 0a35 cfbb
00000070: dea6 493c 81e9 6fbd 9fe1 ba3d 22c1 28be
00000080: 3bf0 3fbd 578f f7bd f847 963d a180 a23d
00000090: 2eca 0ebe 7c14 1bbe 55c7 18be fec5 85bc
000000a0: cd77 24bb caba 3fbc ed18 cabd f0a1 9bbd
000000b0: 0a57 06be 3820 e4bd bf51 25be 2bb5 e3bd
000000c0: 438d c7bc e077 bc3c e499 3e3d 8ac3 773c
000000d0: 62a9 27bd cff4 19bd a968 bb3b 0863 c03d
000000e0: d012 ba3c 16b8 abbd 1b5e 87bd 056c e13c
000000f0: 44c4 b5bd 1c62 39bd 2442 9ebd 352d 87bd
00000100: a082 b6ba 060d 583c 00ab 013d 479b aebb
00000110: 2ea2 263c 8455 8d3b 5db2 38bd 526b 8cbd
00000120: d88c 08be 6829 7ebd 8d33 c1bd 253f a1bd
00000130: 4b93 f2bb 3073 433d 9619 d7bd 217a b1bd
00000140: bf70 153d 5010 12be dda7 babd f843 053d
00000150: 1778 75bb fc9a 833b 6449 01bd 2044 97bd
00000160: 4854 1a3d b1d6 a2bd b377 1fbd 678b 0abe
00000170: 995b 32bd bed3 81bd 1716 98bd dccc e6bd
00000180: dd2c 8dbd 70cd 96bd 85cc 573d ddc1 d43c
00000190: d372 af3d 8902 a0bd b8f5 b13d c5a5 de3c
000001a0: 350f 1b3d 9c5d 963c c6ad 463b cccb 29bd
000001b0: 3136 c63b 8078 fbba 1c03 b8bd 66ee 69bc
000001c0: 9ac8 28bc 4ecb 943c ee80 e5bd 931e 3fbd
000001d0: 1ba3 95bd bc9e 4cbd 5cdf 12be e89c 70bd
000001e0: 5775 71bd 7f1a 753d 599f 4a3d 5c04 44bd
000001f0: 783a a93c 7bca 003e 422d eb3c 9a9e a33d
00000200: de67 dcbd 0ba2 9f3d 81eb d93d 08d2 9bbd
00000210: 278b 653d 9cf2 313d 654d 51bd 31a2 e13d
00000220: aa83 ce3d 8212 81bd d403 9abd 2fce 9b3d
00000230: 7a48 643c 2717 d13d 830c c53d 19ee c0bd
00000240: 40f9 edbd 8105 e3bd ad0e 153d ce53 9d3c
00000250: 6906 cebd a232 aebc 3356 d6bd 65a0 9e3d
00000260: 7590 6b3d 4221 08be 96be 9a3d 7a34 b03c
00000270: 98e6 b2bd 193a ea3c 2e32 51bd 74cf b7bd
00000280: 0892 6a3d 58ea 9c3c 949e b43c 6d3c 0abe
00000290: c46a 083d 0eb7 07be fc1b 73bd 3d4e 563d
000002a0: 878b aa3d 95a6 69bd 533c f0bd 0946 fbbd
000002b0: b604 d7bc 7140 1abd 3fe1 4c3d 1c12 a23d
000002c0: 5895 6b3d 0088 403c 747a c3bd b4ea d43c
000002d0: 3c0a 35bb 2ee1 3c3d 1bab c4bd 43b7 bc3d
000002e0: 2f07 a33d 9a51 b5bb 1537 c8bd 5b73 9dbd
000002f0: 42bf 343d 777f 293c 24e5 473d dd32 53bd
00000300: a702 b33d 4d07 ae3d c3dd 05bc 129b 8f3d
00000310: bc59 273d fccb b6bd 4025 983d da19 333d
00000320: c90e 8fbd c7c7 febd a0cb eabd afa7 4bbd
00000330: c365 a5bc 93a4 47bd d161 7b3d bfb9 8fbd
00000340: 49d3 54bd 54d7 f0bc f78f a4bd 232e 8b3b
00000350: f89e 6e3d 32f1 d5bd aab1 823d d6b0 adbd
00000360: 967e 00bd fca2 86bd 0000 703d a733 853c
00000370: 7b84 553c c66d b83d f86b 7c3d 6361 15bd
00000380: a2a8 43bd f383 cbbd d4f9 8bbd eb6b ab3d
00000390: 6569 af3a 4289 01bd f76d b2bd 4bc0 8bbd
000003a0: 100c 38bb 2726 bf3b fb58 973d 965a 003d
000003b0: b185 a23d 034e c4bc 79e8 e9bd b3fe d2bd
000003c0: 5588 07bc f96d 883b dab0 c4bd a7ce b1bd
000003d0: 30c1 3c3d d452 18bb 4c74 cfbd 50ff acbd
000003e0: d609 a9bd 8aca 1bbc 93ae a2bb 8a36 adbd
000003f0: 827a 083c f17a a1bd 811b d9ba e8e1 00bb

2 f4 [32]
-0.06776145 -0.09430543 0.08820073 0.12250397 0.06582273 0.059367735 0.0021462147 -0.049830172
0.031732816 0.10605745 0.08851939 -0.014592118 0.0465155 0.28297266 0.05207451 0.0578858
0.0042173895 0.22901303 0.025154732 -0.05434629 0.054106127 -0.23236707 0.048900355 -0.05066334
0.07452986 0.0121909855 0.036582287 -0.10693825 0.110702865 0.04002997 -0.035072364 0.033731993
00000000: 84c6 8abd 3523 c1bd 96a2 b43d 5de3 fa3d
00000010: 11ce 863d 952b 733d 82a7 0c3b b91a 4cbd
00000020: 45fa 013d a634 d93d a749 b53d c713 6fbc
00000030: 0987 3e3d cbe1 903e 154c 553d a919 6d3d
00000040: 0732 8a3b 6482 6a3e 4c11 ce3c 379a 5ebd
00000050: 639e 5d3d a2f1 6dbe bd4b 483d 5d84 4fbd
00000060: 1ca3 983d b3bc 473c 4fd7 153d 7102 dbbd
00000070: 2fb8 e23d 77f6 233d 0aa8 0fbd 8f2a 0a3d

3 f4 [32, 32, 5, 5]
0.03904257 0.07527979 0.006555939 -0.05351265 -0.0015109795 0.003393479 0.07596897 -0.03925073
-0.015064444 -0.03352879 0.031254534 0.09052547 -0.0008777904 -0.015485254 -0.05008663 -0.013166824
0.04731479 0.0026589322 -0.03959403 -0.0057641673 0.027034817 0.027312204 -0.0038735054 0.013009673
0.050790586 0.022356905 0.028466268 0.034330014 -0.0050233873 -0.0189197 0.03508826 -0.0034926226
0.028944958 -0.018308721 -0.019242654 -0.013560038 0.013592013 0.018941967 0.018698243 -0.002031396
0.011819162 0.023770502 0.0041421806 0.024039768 0.025300624 -0.01873714 0.017743886 -0.027663127
-0.040073857 -0.0139639145 -0.01970431 -0.030409554 -0.026611753 0.013098183 0.057576813 -0.02472252
-0.050030936 0.0082638115 0.029960833 0.022829277 -0.037771106 -0.04446196 -0.011223223 0.034292553
0.00676929 -0.013454709 -0.025559621 0.013556186 -0.027646448 -0.011114773 0.018552894 -0.009169172
-0.003681857 -0.0023032818 -0.004339682 0.011715422 -0.009485347 -0.034449637 0.026963793 -0.0025970538
-0.014501597 -0.014162168 -0.054230552 0.047925077 0.027657982 0.008451584 -0.032135274 -0.019880854
0.038406078 0.06810864 -0.01354394 -0.042303428 0.0019667135 0.06291334 0.038637113 -0.030322008
-0.011987789 -0.029178172 0.021313412 0.052520618 -0.029646255 -0.09049267 -0.04563605 0.0066348216
0.005702567 0.023939429 -0.023360621 -0.0732225 -0.05716032 0.0040281797 0.03479462 -0.055760108
-0.046340425 -0.018098027 0.01765084 0.029781707 0.008508078 -0.023788497 0.017552206 -0.007212588
0.031856716 -0.0211223 0.0016485999 -0.042421494 -0.029704496 -0.036882516 0.040905263 0.01628129
0.034047637 -0.08085876 -0.080533594 0.02371441 -0.081542924 -0.08163925 -0.02838799 -0.00033978163
-0.008976695 0.010006208 -0.0601033 -0.05732991 -0.028447066 0.020826563 -0.0064864666 0.023872778
0.022367407 0.022824375 0.08077974 0.058839813 0.023294974 -0.019013535 -0.033744954 -0.006077759
-0.04798423 -0.04327607 0.004360172 0.02377562 -0.031103771 -0.0351395 0.006740383 -0.029543288
0.00943164 -0.03171844 -0.03149056 -0.04129216 0.014767502 -0.032460142 0.0070442753 0.029970644
0.0033092943 0.016563874 -0.022933545 0.01763233 0.023084821 0.015105402 -0.012851242 0.006330648
-0.0072029755 0.029953813 0.022040036 0.053601515 -0.00375677 -0.0313167 -0.01119218 -0.01199842
0.012720813 0.005587857 0.013298696 -0.0053377124 -0.00016260987 0.012407667 -0.0046440572 0.023806516
0.007687738 0.026060484 -0.010954846 0.018040923 0.051187325 0.012671927 -0.008292694 0.018610276
0.047000535 -0.000521226 -0.010994171 0.03870864 0.022203136 -0.012746783 -0.017626768 0.0036259682
0.0022473373 0.04395031 -0.022172429 -0.0018237964 0.008819332 0.014200366 -0.016872752 -0.054405756
0.0103621185 -0.032262042 0.005452101 0.0070764897 -0.06935932 -0.037667368 -0.06680383 -0.0040951576
0.021276277 0.012160149 0.0018139983 -0.021837275 -0.053294502 -0.054739207 -0.03223037 -0.004628531
0.014266656 -0.03444469 0.037703246 -0.055879124 -0.075037204 -0.018753681 0.006026475 0.01837107
-0.02160336 -0.00402963 0.036308803 0.04407865 0.016657293 -0.1093085 -0.08561068 -0.044667
-0.023093272 -0.045236394 -0.024959128 -0.024032805 -0.02114613 0.0031746365 0.009468705 0.026036493
00000000: 1aeb 1f3d 4a2c 9a3d 34d3 d63b 1530 5bbd
00000010: 0f0c c6ba 2165 5e3b 9f95 9b3d 60c5 20bd
00000020: dcd0 76bc 7c55 09bd c104 003d 6b65 b93d
00000030: 841b 66ba ddb5 7dbc a327 4dbd aab9 57bc
00000040: 27cd 413d 7b41 2e3b 592d 22bd 57e1 bcbb
00000050: 1f78 dd3c d8bd df3c a3da 7dbb 8626 553c
00000060: ca09 503d d425 b73c 1732 e93c a19d 0c3d
00000070: 3a9b a4bb 7dfd 9abc b5b8 0f3d 7ce4 64bb
00000080: fa1d ed3c 2cfc 95bc c5a2 9dbc ec2a 5ebc
00000090: 09b1 5e3c 2f2c 9b3c 0f2d 993c 2b21 05bb
000000a0: 29a5 413c 5bba c23c 21bb 873b 0cef c43c
000000b0: 4143 cf3c a17e 99bc a05b 913c c89d e2bc
000000c0: 7c24 24bd e7c8 64bc ef6a a1bc 751d f9bc
000000d0: e400 dabc c399 563c aad5 6b3d e286 cabc
000000e0: 3ded 4cbd f064 073c 6c70 f53c 7704 bb3c
000000f0: e0b5 1abd bf1d 36bd 9ce1 37bc 5976 0c3d
00000100: ecd0 dd3b 2471 5cbc 6962 d1bc c41a 5e3c
00000110: ce7a e2bc bd1a 36bc 3dfc 973c 4b3a 16bc
00000120: 4f4b 71bb a8f2 16bb e433 8ebb 0bf2 3f3c
00000130: 6e68 1bbc 101b 0dbd 2ce3 dc3c 5533 2abb
00000140: 1b98 6dbc 7008 68bc db20 5ebd 164d 443d
00000150: fe92 e23c 8378 0a3c 47a0 03bd 2cdd a2bc
00000160: b14f 1d3d 8b7c 8b3d 67e7 5dbc 5c46 2dbd
00000170: fae3 003b b6d8 803d f341 1e3d dc65 f8bc
00000180: 6e68 44bc 1007 efbc 7799 ae3c dc1f 573d
00000190: b4dc f2bc 3954 b9bd deec 3abd eb68 d93b
000001a0: 99dc ba3b 9f1c c43c c65e bfbc aef5 95bd
000001b0: f120 6abd d2fe 833b ce84 0e3d b664 64bd
000001c0: 75cf 3dbd 5042 94bc 7f98 903c c4f8 f33c
000001d0: 7765 0b3c 18e0 c2bc a5c9 8f3c 9357 ecbb
000001e0: 307c 023d ac08 adbc d515 d83a 29c2 2dbd
000001f0: d856 f3bc 1f12 17bd 478c 273d 5760 853c
00000200: 8975 0b3d 4799 a5bd ccee a4bd b944 c23c
00000210: faff a6bd 7b32 a7bd ee8d e8bc b824 b2b9
00000220: fd12 13bc 14f1 233c e12e 76bd c5d2 6abd
00000230: d209 e9bc 789c aa3c 6d8c d4bb d890 c33c
00000240: da3b b73c 2ffa ba3c d96f a53d 0402 713d
00000250: 1ad5 be3c 46c2 9bbc 2638 0abd f027 c7bb
00000260: 1d8b 44bd 4042 31bd c6df 8e3b 17c5 c23c
00000270: 56cd febc 70ee 0fbd 6ede dc3b c404 f2bc
00000280: 2a87 1a3c 32eb 01bd 3ffc 00bd f821 29bd
00000290: 65f3 713c edf4 04bd aad3 e63b ff84 f53c
000002a0: bfe0 583b f6b0 873c 21df bbbc ad71 903c
000002b0: 611c bd3c a67c 773c 048e 52bc 5371 cf3b
000002c0: f006 ecbb b361 f53c 4e8d b43c 438d 5b3d
000002d0: 2434 76bb f145 00bd 685f 37bc 0595 44bc
000002e0: f56a 503c 581a b73b c6e2 593c fae7 aebb
000002f0: 4182 2ab9 8749 4b3c 2d2d 98bb e205 c33c
00000300: 6ce9 fb3b cc7c d53c f47b 33bc 8fca 933c
00000310: cda9 513d ea9d 4f3c 14de 07bc 9474 983c
00000320: a283 403d e2a2 08ba e520 34bc f38c 1e3d
00000330: 5ae3 b53c e2d7 50bc 0366 90bc a7a1 6d3b
00000340: 1048 133b 3e05 343d f4a2 b5bc 740c efba
00000350: f67e 103c a7a8 683c ba38 8abc 92d8 5ebd
00000360: e0c5 293c 3425 04bd 8aa7 b23b e6e1 e73b
00000370: 420c 8ebd 1949 1abd 72d0 88bd ac30 86bb
00000380: 964b ae3c 5d3b 473c afc3 ed3a 16e4 b2bc
00000390: 564b 5abd 3836 60bd fe03 04bd efaa 97bb
000003a0: b1be 693c e015 0dbd b86e 1a3d 82e1 64bd
000003b0: 1bad 99bd 52a1 99bc bd79 c53b ed7e 963c
000003c0: 88f9 b0bc fd0a 84bb 8ab8 143d d18b 343d
000003d0: e074 883c 23dd dfbd a754 afbd bff4 36bd
000003e0: 1a2e bdbc cc49 39bd 1677 ccbc 72e0 c4bc
000003f0: a63a adbc 900d 503b a122 1b3c 7c4a d53c

4 f4 [32]
0.0989099 -0.0322472 0.01768228 0.116823524 -0.017073853 0.17121758 -0.019013004 -0.058678985
0.05480463 -0.045363024 0.0186459 0.08707212 0.08704353 0.08664435 0.023509195 0.0020178386
0.006679792 -0.047584865 0.028468205 -0.05242975 0.007081813 -0.016733516 -0.028022557 0.009951596
0.018805614 0.07883126 0.07107281 0.006617898 -0.004413006 0.047481958 -0.010608107 0.11405079
00000000: 4691 ca3d a415 04bd 6eda 903c 2c41 ef3d
00000010: 77de 8bbc a953 2f3e 29c1 9bbc 6059 70bd
00000020: d27a 603d 94ce 39bd 49bf 983c de52 b23d
00000030: e143 b23d 9872 b13d 5b96 c03c b73d 043b
00000040: 28e2 da3b 59e8 42bd 2736 e93c 94c0 56bd
00000050: 8e0e e83b ba14 89bc 908f e5bc 050c 233c
00000060: 3b0e 9a3c 4972 a13d 9f8e 913d f4da d83b
00000070: fa9a 90bb 717c 423d a0cd 2dbc 7693 e93d

5 f4 [120]
0.1547303 0.07874865 -0.0056812586 -0.0326361 -0.050926916 0.17031027 0.011997724 -0.020908393
-0.057463292 0.011845068 -0.0102864755 -0.02627543 -0.012177484 0.072615735 -0.016945822 0.00491008
0.1626833 -0.07022701 0.08027522 0.20455906 0.03199771 -0.083648205 -0.032621685 -0.041376323
-0.10800203 -0.08457243 -0.030456824 0.0795356 0.021130754 0.13103242 -0.008119799 -0.017226318
0.0015314601 -0.030417275 -0.020480854 -0.008761908 -0.011541259 -0.026304357 0.121118814 -0.08162837
0.104059346 0.0790575 0.015823066 -0.030053549 0.13926536 -0.006623337 -0.0073298435 0.14725237
0.04704344 -0.02396922 0.083613776 0.0027004688 0.06983882 0.04835045 0.0836037 -0.00033281965
0.008166636 0.0074521177 -0.01739043 0.15042421 -0.041412953 0.012600499 -0.0070666205 0.014866908
0.009412654 0.026039964 -0.0020277963 0.0051405514 -0.021548288 -0.007830111 0.1298207 -0.024136037
-0.028372483 0.060822304 0.034789387 -0.054052822 0.09229484 -0.008707068 -0.017490616 0.06801742
-0.0030067505 -0.044187516 0.036367834 0.02427205 0.2053148 0.044298217 -0.01248136 0.05170539
-0.009492128 -0.032541316 -0.010904743 0.04061189 -0.03821522 -0.06484439 -0.021990817 0.0028845854
-0.002896808 -0.0038733243 -0.050999057 -0.011574138 -0.04249013 0.06396698 -0.036255587 0.14247313
-0.0052670613 -0.012036363 -0.019537074 0.00032318765 -0.019912057 0.051437777 -0.013977497 0.26556388
-0.006555045 -0.019583963 -0.036143277 -0.042980608 0.008348896 0.013419709 -0.04982258 0.1856603
00000000: 9f71 1e3e f946 a13d da29 babb 6ead 05bd
00000010: be98 50bd d165 2e3e 1a92 443c 1448 abbc
00000020: a15e 6bbd d111 423c 9b88 28bc 923f d7bc
00000030: 1284 47bc 8fb7 943d f7d1 8abc bde4 a03b
00000040: 7396 263e 2ed3 8fbd 5667 a43d ee77 513e
00000050: 0810 033d c04f abbd 519e 05bd 387a 29bd
00000060: 2b30 ddbd 4f34 adbd 9780 f9bc 90e3 a23d
00000070: 671a ad3c 5d2d 063e e808 05bc 351e 8dbc
00000080: 46bb c83a a62d f9bc 77c7 a7bc 1b8e 0fbc
00000090: 8c17 3dbc 3c7c d7bc 240d f83d c62c a7bd
000000a0: 111d d53d e6e8 a13d 609f 813c dc32 f6bc
000000b0: 949b 0e3e 9408 d9bb 2f2f f0bb 53c9 163e
000000c0: 9fb0 403d 195b c4bc b33d ab3d 59fa 303b
000000d0: a807 8f3d 1f0b 463d 6b38 ab3d 4c7e aeb9
000000e0: 5bcd 053c e530 f43b 6076 8ebc ce08 1a3e
000000f0: a1a0 29bd 5372 4e3c 1c8f e7bb 5594 733c
00000100: 8837 1a3c c351 d53c c7e4 04bb 1272 a83b
00000110: 0986 b0bc de49 00bc b8ef 043e f0b8 c5bc
00000120: 696d e8bc cf20 793d 517f 0e3d 7e66 5dbd
00000130: 1405 bd3d 17a8 0ebc 7b48 8fbc b84c 8b3d
00000140: e70c 45bb f8fd 34bd 70f6 143d 2ed6 c63c
00000150: 0b3e 523e 0c72 353d 9e7e 4cbc 08c9 533d
00000160: df84 1bbc 0b4a 05bd cfa9 32bc a758 263d
00000170: 9087 1cbd 23cd 84bd 1626 b4bc 500b 3d3b
00000180: 60d8 3dbb 99d7 7dbb 63e4 50bd 74a1 3dbc
00000190: 210a 2ebd 1f01 833d bd80 14bd 7ae4 113e
000001a0: 5097 acbb 2a34 45bc 370c a0bc 8371 a939
000001b0: 9c1e a3bc 6bb0 523d df01 65bc fdf7 873e
000001c0: b4cb d6bb 8c6e a0bc f90a 14bd 6f0c 30bd
000001d0: cfc9 083c 57de 5b3c c312 4cbd bc1d 3e3e

6 f4 [120, 1568]
-0.0070365416 0.025254332 0.025615627 0.015920032 -0.0023782703 -0.009522402 0.015732158 -0.012913968
0.04139845 -0.008250371 0.004949011 -0.0051894397 -0.025856722 -0.008250618 -0.0044964575 0.007184914
-0.0009673104 0.0041053435 0.019860325 0.022326805 -0.015029919 0.0063703186 0.021454735 -0.011177006
0.006329242 0.033119094 0.0016386101 0.007865643 0.020255838 0.036903784 0.0026065684 0.0026958112
0.01359827 0.038847607 -0.013196308 0.021797733 0.00090812024 -0.0016566392 0.015829273 0.021665644
0.0003324483 -0.004444677 0.029519178 0.01188954 -0.025676904 0.022423234 0.024211522 -0.0015670488
0.014309287 0.006375977 0.023226144 0.005486499 -0.019841347 0.022908881 0.02391654 -0.021207437
0.012714485 0.020571698 -0.020054996 -0.018718865 -0.013247154 0.021900231 -0.0031335105 0.014883232
0.006527394 0.011255098 0.015669577 0.022012124 -0.013574051 0.025401214 0.022715643 -0.000892755
-0.013442664 -0.015061305 3.362794e-05 0.009908488 0.013484291 0.00919704 -0.019040333 -0.005557293
-0.0029121204 -0.019977495 0.0037455289 0.008529699 0.008764775 -0.004708175 -0.0036063348 -0.008345987
0.010839651 0.028232906 0.011276327 -0.023009166 0.0111259725 0.025507485 -0.008347184 -0.004179509
-0.021430528 0.022134129 -0.003914651 0.009100928 0.015196958 -0.019131957 -0.0051027555 0.010960586
-0.01587017 -0.005767679 -0.018356299 0.030828873 -0.0041791685 0.010691567 -0.003920624 0.026287274
-0.016184231 -0.0146095585 -0.005156482 0.0257772 0.0146702705 0.017314335 0.0031985869 -0.0031982749
-0.00665713 0.020410853 0.011303315 0.023600949 0.014527575 0.00863057 -0.0054313657 -0.0026910643
0.030604018 0.027062373 0.009428643 -0.005006193 0.016198676 0.02715268 0.024072014 -0.011544339
0.0022420024 -0.004361581 0.0028906418 0.0034435645 0.00413023 -0.0115548335 -0.005593304 0.017408334
-0.004187401 0.018278264 0.009505751 0.013876597 -0.019397317 0.0054285275 0.044948738 0.025600608
0.03159979 0.041684102 0.00399659 -0.07888744 -0.079877555 -0.058339514 0.011990791 -0.020330535
0.0049398816 0.0070508183 -0.06908206 -0.10476583 -0.13575085 -0.10768906 -0.028888425 -0.0044777705
0.033056457 0.022306468 0.08371013 0.100231946 0.009183787 -0.019193327 -0.017760992 0.019099232
0.046440978 0.09670025 0.063067965 0.0037644554 0.0023556375 0.0035853311 0.027310165 -0.008862615
-0.03328653 -0.03637996 -0.011617566 0.05105251 -0.0049552303 0.013546064 -0.02483644 -0.030727273
-0.087432295 -0.07968574 -0.02864664 -0.009708099 0.024267692 0.008509231 -0.00752049 0.017244123
-0.0070796832 0.005781647 0.0009829678 0.011765247 0.023310224 0.015177084 0.01109079 0.002753723
0.006461444 0.018733785 0.026267495 -0.010580242 0.030033175 -0.005315793 -0.012571811 -0.013109191
0.0011808767 0.024063107 0.0064041405 0.004025793 0.012549952 0.01891021 0.013922906 0.0053173467
0.022342023 0.027554268 -0.008593131 -7.995379e-05 0.016709594 0.02942406 -0.009985112 -0.013232677
0.0046962826 0.0021382947 0.0023326515 -0.0066834725 -0.006750877 -0.0046378435 0.0027942224 0.0039541237
-0.0019388568 -0.00021557443 0.013816228 0.021815505 0.018508062 -0.036442153 0.01415053 0.029325675
-0.048449066 -0.030278368 0.017012868 0.02300113 0.0029205887 0.011374749 0.04206004 -0.006348172
00000000: ca92 e6bb 2ce2 ce3c ddd7 d13c ba6a 823c
00000010: c1dc 1bbb d903 1cbc bae0 803c 1c95 53bc
00000020: 6c91 293d 902c 07bc 502b a23b 2d0c aabb
00000030: 7ad1 d3bc 9a2d 07bc 0557 93bb 6d6f eb3b
00000040: 1a93 7dba 1e86 863b 1fb2 a23c b4e6 b63c
00000050: 0d40 76bc 1bbe d03b d7c1 af3c c31f 37bc
00000060: 8865 cf3b e3a7 073d a2c6 d63a e6de 003c
00000070: 92ef a53c 6c28 173d f6d2 2a3b 35ac 303b
00000080: 47cb 5e3c ab1e 1f3d 5435 58bc 2991 b23c
00000090: eb0e 6e3a 9623 d9ba 64ac 813c 267c b13c
000000a0: 754c ae39 a7a4 91bb 34d2 f13c 58cc 423c
000000b0: 5f58 d2bc eeb0 b73c 3e57 c63c 6f65 cdba
000000c0: 8071 6a3c 92ed d03b c144 be3c 17c8 b33b
000000d0: 528a a2bc 68ab bb3c 9fec c33c 38bb adbc
000000e0: 6a50 503c fa85 a83c 604a a4bc 4e58 99bc
000000f0: 970a 59bc 1d68 b33c 955b 4dbb cdd8 733c
00000100: c0e3 d53b 4d67 383c 7c5d 803c c552 b43c
00000110: b265 5ebc 3516 d03c 2816 ba3c c607 6aba
00000120: 9f3e 5cbc b1c3 76bc ba0b 0d38 3657 223c
00000130: 37ed 5c3c 2faf 163c 79fa 9bbc f419 b6bb
00000140: 46d9 3ebb d8a7 a3bc 8c77 753b 27c0 0b3c
00000150: 219a 0f3c 0947 9abb 4258 6cbb 9bbd 08bc
00000160: cb98 313c b248 e73c 58c0 383c b87d bcbc
00000170: b649 363c 13f5 d03c a1c2 08bc 43f4 88bb
00000180: 138f afbc a252 b53c 7946 80bb 0f1c 153c
00000190: a9fc 783c 9fba 9cbc 0435 a7bb 0894 333c
000001a0: 2902 82bc ccfe bcbb f35f 96bc d58c fc3c
000001b0: 68f1 88bb af2b 2f3c 9478 80bb 6958 d73c
000001c0: cb94 84bc ee5c 6fbc b5f7 a8bb b52a d33c
000001d0: 935b 703c cbd6 8d3c 629f 513b 269a 51bb
000001e0: 0e24 dabb a934 a73c 8a31 393c c756 c13c
000001f0: 1105 6e3c 3c67 0d3c 99f9 b1bb 915c 30bb
00000200: 47b5 fa3c e9b1 dd3c 987a 1a3c fe0a a4bb
00000210: 16b3 843c 4c6f de3c ac32 c53c 7824 3dbc
00000220: 8fee 123b 98eb 8ebb ec70 3d3b 6dad 613b
00000230: e156 873b 7c50 3dbc 0948 b7bb ec9b 8e3c
00000240: 7736 89bb 4cbc 953c 02be 1b3c ab5a 633c
00000250: 1fe7 9ebc cae1 b13b 2b1c 383d 5eb8 d13c
00000260: c86e 013d f3bc 2a3d d4f5 823b bd8f a1bd
00000270: d896 a3bd 6af5 6ebd 0675 443c 398c a6bc
00000280: bbde a13b 8d0a e73b e57a 8dbd 788f d6bd
00000290: 4502 0bbe 158c dcbd 6ba7 ecbc 43ba 92bb
000002a0: 3566 073d 0ebc b63c 3770 ab3d 6846 cd3d
000002b0: 9877 163c 533b 9dbc 807f 91bc fe75 9c3c
000002c0: e538 3e3d c80a c63d c729 813d 15b5 763b
000002d0: 0a61 1a3b e0f7 6a3b 91b9 df3c 8034 11bc
000002e0: 7557 08bd 2703 15bd 9b57 3ebc 701c 513d
000002f0: 7c5f a2bb 4ff0 5d3c ca75 cbbc c3b7 fbbc
00000300: b40f b3bd 4732 a3bd 5cac eabc b80e 1fbc
00000310: 0acd c63c 4d6a 0b3c 716e f6bb 8c43 8d3c
00000320: b0fc e7bb f873 bd3b edd6 803a 06c3 403c
00000330: 15f5 be3c 4ea9 783c 25b6 353c ce77 343b
00000340: 85ba d33b 9877 993c ee2e d73c c058 2dbc
00000350: 2208 f63c 1b30 aebb fff9 4dbc efc7 56bc
00000360: a6c7 9a3a fe1f c53c d3d9 d13b cdea 833b
00000370: 509e 4d3c 96e9 9a3c e61c 643c 233d ae3b
00000380: 9e06 b73c 7db9 e13c 34ca 0cbc ddac a7b8
00000390: 8fe2 883c ba0a f13c 9898 23bc dfcd 58bc
000003a0: 46e3 993b a222 0c3b 66df 183b 0801 dbbb
000003b0: 7636 ddbb 0df9 97bb 461f 373b 9891 813b
000003c0: 3d21 feba d20b 62b9 765d 623c 6eb6 b23c
000003d0: 389e 973c 5e44 15bd a0d7 673c 663c f03c
000003e0: 8772 46bd 570a f8bc 925e 8b3c de6c bc3c
000003f0: 5967 3f3b 285d 3a3c 2647 2c3d 5404 d0bb

7 f4 [84]
-0.053200487 0.04361662 0.05772844 0.1530409 0.19723485 -0.068222724 0.0029471817 0.008724952
0.06791522 -0.024241438 -0.02595394 0.12052069 -0.016109044 0.04221692 0.041983213 -0.16055906
0.042510763 0.008686373 0.023667207 -0.107631065 0.016744658 -0.08413646 0.02995522 -0.00733744
-0.056796614 0.010497092 -0.055743907 0.11670594 -0.093055375 0.017502189 0.06804585 -0.02091244
-0.050716363 -0.07169859 0.0107966075 0.13942647 0.06418198 -0.07455017 0.11801637 -0.033383362
0.21732762 -0.031089913 0.09984709 0.31518558 0.08560303 -0.036935825 0.03440515 -0.020159934
-0.022590764 -0.14777093 0.09443563 -0.060388975 0.14729679 -0.22940555 -0.042720135 -0.011430284
0.13645644 0.17605294 0.010214781 0.112511255 -0.07231586 -0.059370235 0.034600046 0.09945704
0.0029141007 0.04792228 0.14001669 -0.02433412 0.017200723 0.15098272 0.30079088 -0.1276398
-0.008073146 0.04385637 -0.20712689 0.11949859 0.032465275 -0.10443522 -0.022566725 0.062476866
-0.01918825 0.046721593 -0.05602818 0.10180015
00000000: c1e8 59bd 57a7 323d a874 6c3d c1b6 1c3e
00000010: eff7 493e 5bb8 8bbd 8125 413b 1af3 0e3c
00000020: 2317 8b3d fb95 c6bc 5b9d d4bc 8dd3 f63d
00000030: 1df7 83bc a6eb 2c3d 97f6 2b3d 9869 24be
00000040: c41f 2e3d 4a51 0e3c bbe1 c13c ad6d dcbd
00000050: 182c 893c bd4f acbd a664 f53c e86e f0bb
00000060: 91a3 68bd fffb 2b3c b953 64bd 8603 ef3d
00000070: d193 bebd c060 8f3c 9f5b 8b3d 9150 abbc
00000080: f6bb 4fbd b6d6 92bd 41e4 303c d0c5 0e3e
00000090: d871 833d c2ad 98bd 91b2 f13d febc 08bd
000000a0: 228b 5e3e 46b0 febc a27c cc3d 0160 a13e
000000b0: a450 af3d 054a 17bd 6aec 0c3d 7226 a5bc
000000c0: 4410 b9bc 4351 17be 7867 c13d 6e5a 77bd
000000d0: f8d4 163e 4ae9 6abe 4ffb 2ebd 1646 3bbc
000000e0: 3dbb 0b3e 3947 343e e65b 273c 4d6c e63d
000000f0: 561a 94bd 342e 73bd c7b8 0d3d 22b0 cb3d
00000100: 7ffa 3e3b 274a 443d 8960 0f3e 5958 c7bc
00000110: 88e8 8c3c 379b 1a3e 4301 9a3e 02b4 02be
00000120: 3b45 04bc bda2 333d 1219 54be adbb f43d
00000130: 4ffa 043d 22e2 d5bd dadd b8bc bee7 7f3d
00000140: ad30 9dbc 245f 3f3d ce7d 65bd 997c d03d

8 f4 [84, 120]
0.017820667 -0.042382855 -0.055584356 -0.11370627 -0.07871917 0.067057915 0.012584223 0.04288427
-0.03937584 0.03732468 -0.036037125 0.023562558 0.04028154 -0.0897657 -0.09471452 -0.06354541
0.014524996 0.084491864 -0.013518489 -0.026890403 -0.17005023 -0.057059012 -0.012321129 0.054378454
-0.09386329 -0.011670515 0.065690845 0.06492972 -0.115220174 -0.094534114 0.03725061 -0.024653977
-0.037911367 -0.050295923 0.073148906 0.00070674723 -0.044042572 0.04389959 -0.09236212 -0.052538954
-0.100254945 -0.09059605 -0.02648321 0.080354504 -0.095649034 -0.09864704 0.026360631 0.011602786
-0.06794652 0.0016643452 -0.03898677 -0.043290023 -0.080315776 -0.016211588 -0.07433005 0.07272091
0.034108177 -0.06016004 -0.003838092 -0.051285576 -0.07347106 -0.0709656 0.08129065 -0.059831325
-0.06175007 -0.089077085 -0.07034844 -0.038990527 0.022453552 -0.077317014 0.0075994525 0.025347471
-0.094217524 0.0049320622 -0.06779597 0.08252227 -0.08844898 -0.07672027 0.032943103 -0.08509573
-0.07923657 0.080498114 -0.26544765 0.0024569954 -0.09903205 0.05299557 0.07180548 0.058906805
0.047336493 -0.018521953 -0.07297563 -0.06767264 0.045214746 0.06374627 -0.09029924 -0.07225403
-0.0636947 -0.08479723 -0.0118642505 0.10488753 0.089741424 -0.09305484 0.048925206 -0.072110236
0.0470881 0.044634502 -0.05648377 -0.07826879 -0.00845492 -0.10611219 -0.0805165 -0.07692478
-0.056595173 -0.030352578 -0.016718438 0.058116484 -0.06878176 0.046389624 -0.05819356 -0.027967013
-0.07663188 0.08705073 -0.010164028 0.050516833 0.13042438 0.01553288 0.08841559 -0.058821145
-0.0039833314 0.07984551 -0.07029331 -0.011542781 0.11058336 -0.11575332 -0.004313724 -0.00648486
-0.10636195 0.005784214 -0.010816594 0.053351913 0.031934734 -0.14457072 -0.07842334 0.047018975
-0.05802333 -0.033011366 0.017793637 -0.013930386 0.035720214 -0.09635076 -0.06519217 -0.07696836
-0.0038862526 0.06791502 -0.007345572 0.08363588 0.08387918 -0.090431474 0.034465544 0.041460518
0.0028977683 0.024311822 0.02311233 0.022939023 -0.08381499 0.0005374964 -0.09232659 0.06199968
-0.059273027 -0.042156897 0.028288389 0.0015072492 0.022103626 0.03437214 -0.036409672 0.0136252055
-0.061183758 -0.03655238 0.07154254 0.021023333 -0.099218264 -0.060946625 0.06450586 -0.04052018
-0.07852744 0.06243494 0.04695699 -0.051344194 0.05879614 -0.0053411387 -0.061483108 -0.03960304
0.06706229 -0.0066690487 0.036946427 -0.069658644 0.03198609 -0.08250078 0.03824113 -0.078959495
-0.009310219 -0.073623106 -0.023110427 0.09297626 -0.013254299 -0.017971095 -0.0761149 0.009776852
0.044581145 -0.06342348 0.02877065 -0.06895965 0.021230903 -0.098614514 -0.023105726 -0.05584401
0.051812872 0.08927584 -0.08945808 0.06924566 0.06370199 -0.06717749 -0.030328598 -0.0031282103
-0.1092053 -0.017484436 0.08957863 0.006137938 0.036250293 -0.015395463 0.029858945 0.03714874
-0.06035482 -0.042424668 -0.036317635 -0.023944482 -0.0117070675 0.05220376 0.01220348 -0.059849963
0.18145351 -0.040328417 -0.050665934 -0.19748525 -0.08345904 -0.096084096 -0.058624532 0.0035688188
0.022213906 -0.043756332 -0.011873297 0.050377533 0.08307348 -0.09902486 -0.0011918386 0.05698796
00000000: a6fc 913c a599 2dbd 6cac 63bd d5de e8bd
00000010: 8437 a1bd a955 893d 0f2e 4e3c 6ba7 2f3d
00000020: 9048 21bd c3e1 183d aa9b 13bd 4406 c13c
00000030: 42fe 243d 14d7 b7bd b0f9 c1bd 1924 82bd
00000040: 40fa 6d3c 120a ad3d a77c 5dbc 4349 dcbc
00000050: a621 2ebe b6b6 69bd 90de 49bc f1bb 5e3d
00000060: 663b c0bd b035 3fbc ec88 863d dff9 843d
00000070: 8ef8 ebbd 1a9b c1bd 1894 183d 23f7 c9bc
00000080: f348 1bbd 1903 4ebd 18cf 953d 0145 393a
00000090: fc65 34bd 0ed0 333d 5a28 bdbd 1633 57bd
000000a0: 7752 cdbd 6c8a b9bd 51f3 d8bc e790 a43d
000000b0: a4e3 c3bd 7607 cabd 40f2 d73c 9d19 3e3c
000000c0: 8c27 8bbd 2826 da3a 97b0 1fbd e150 31bd
000000d0: 997c a4bd 2ace 84bc 5a3a 98bd b3ee 943d
000000e0: 04b5 0b3d 606a 76bd 8088 7bbb d310 52bd
000000f0: ff77 96bd 6a56 91bd b67b a63d b111 75bd
00000100: a4ed 7cbd 0c6e b6bd d812 90bd 88b4 1fbd
00000110: 83f0 b73c 6258 9ebd d404 f93b 80a5 cf3c
00000120: 1ef5 c0bd 239d a13b 9dd8 8abd 7001 a93d
00000130: bd24 b5bd 841f 9dbd 59ef 063d ac46 aebd
00000140: c846 a2bd 32dc a43d c1e8 87be 8b05 213b
00000150: 51d1 cabd e211 593d c00e 933d 4348 713d
00000160: e9e3 413d 5abb 97bc 3f74 95bd f497 8abd
00000170: 1933 393d 688d 823d cfee b8bd ecf9 93bd
00000180: 5e72 82bd 2caa adbd 4662 42bc 46cf d63d
00000190: 5aca b73d 8993 bebd cc65 483d 88ae 93bd
000001a0: 74df 403d abd2 363d 875b 67bd 634b a0bd
000001b0: 8186 0abc 5951 d9bd d6e5 a4bd bd8a 9dbd
000001c0: 57d0 67bd f8a5 f8bc 1bf5 88bc 8d0b 6e3d
000001d0: 74dd 8cbd 0c03 3e3d 5f5c 6ebd 141b e5bc
000001e0: 2df1 9cbd a747 b23d 0687 26bc bdea 4e3d
000001f0: f88d 053e 9f7d 7e3c 3c13 b53d 71ee 70bd
00000200: 9b86 82bb 0b86 a33d f0f5 8fbd ef1d 3dbc
00000210: 8779 e23d 1410 edbd 245a 8dbb f37e d4bb
00000220: 4bd4 d9bd 8189 bd3b 1538 31bc 8987 5a3d
00000230: ffcd 023d 590a 14be 6b9c a0bd f896 403d
00000240: dfa9 6dbd ed36 07bd f6c3 913c 463c 64bc
00000250: 5c4f 123d 8c53 c5bd 7983 85bd 96a1 9dbd
00000260: 80b0 7ebb 0817 8b3d 20b3 f0bb 4a49 ab3d
00000270: d9c8 ab3d 2334 b9bd be2b 0d3d 81d2 293d
00000280: 7ce8 3d3b 9629 c73c 1256 bd3c 9eea bb3c
00000290: 32a7 abbd c6e6 0c3a b915 bdbd 60f3 7d3d
000002a0: 46c8 72bd b6ac 2cbd 0dbd e73c e48e c53a
000002b0: aa12 b53c cdc9 0c3d 4f22 15bd 413c 5f3c
000002c0: d29b 7abd f3b7 15bd e584 923d 2039 ac3c
000002d0: f232 cbbd 2ba3 79bd a61b 843d 7df8 25bd
000002e0: ffd2 a0bd c8bb 7f3d f955 403d 4a4e 52bd
000002f0: 39d4 703d b804 afbb b6d5 7bbd cc36 22bd
00000300: f457 893d 0988 dabb 2355 173d 31a9 8ebd
00000310: d903 033d 2bf6 a8bd bba2 1c3d 84b5 a1bd
00000320: e489 18bc b6c7 96bd 1452 bdbc 566a be3d
00000330: 8f28 59bc 1e38 93bc 21e2 9bbd 172f 203c
00000340: b89a 363d 2be4 81bd 6db0 eb3c b83a 8dbd
00000350: 6eec ad3c 68f6 c9bd 3848 bdbc b0bc 64bd
00000360: bc39 543d 40d6 b63d cc35 b7bd abd0 8d3d
00000370: 3076 823d 5a94 89bd ae73 f8bc a902 4dbb
00000380: 07a7 dfbd 853b 8fbc 0075 b73d c120 c93b
00000390: 307b 143d 413d 7cbc bf9a f43c 4729 183d
000003a0: 9e36 77bd 7dc5 2dbd cdc1 14bd 3827 c4bc
000003b0: 00cf 3fbc 9cd3 553d 1bf1 473c 3c25 75bd
000003c0: f3ce 393e 692f 25bd 1587 4fbd 9339 4abe
000003d0: 93ec aabd bdc7 c4bd 4720 70bd d8e2 693b
000003e0: f0f9 b53c d739 33bd 3888 42bc ac58 4e3d
000003f0: 6e22 aa3d 8ccd cabd 7837 9cba 356c 693d

9 f4 [4]
-0.014738488 -0.29210037 0.035231277 0.016563637
00000000: b379 71bc 2e8e 95be ac4e 103d 77b0 873c

10 f4 [4, 84]
-0.014491652 0.011908962 0.043894548 0.012937646 -0.098294474 0.075467475 -0.032689694 -0.09409787
-0.06402415 0.070770815 -0.0031206736 -0.042688932 -0.009919605 0.0023832852 0.07237576 0.06471614
0.068999074 0.0253943 -0.027926799 0.013833001 0.07761824 0.056684364 -0.043647565 0.06500423
0.0534715 -0.029411072 0.007268908 0.06613603 0.048004296 0.04294521 -0.077821806 -0.016552705
-0.13011554 -0.039001238 -0.026182065 -0.08015912 0.05971642 0.009344445 -0.040355902 0.029600585
-0.09475298 0.016651062 0.0234298 -0.06773247 -0.01836404 0.046766236 -0.11425003 0.011599845
0.048676204 0.0024939447 0.027501712 0.03963807 -0.06045933 -0.017684914 0.089210644 0.010969047
0.094500214 0.021556236 0.06556149 -0.0030453515 0.05994674 -0.08266986 -0.069087625 0.020424131
0.0069178427 0.0066064647 -0.02160211 -0.023823908 -0.011962311 0.088427916 0.05951011 -0.0023620415
0.056729198 0.013388371 -0.040729057 -0.06582573 -0.09384438 0.025411535 -0.021629984 0.10795548
-0.061364066 -0.04666802 0.030339595 -0.0027817008 0.019188913 0.027264792 0.0012550752 -0.07982939
-0.14041178 0.048045475 -0.05914052 0.02532024 0.035043485 -0.010894905 0.049222883 -0.08328011
0.10319231 -0.021272797 -0.060944527 0.13677381 -0.0077801505 0.058951944 -0.020880632 0.07052357
-0.0136751775 0.044039316 -0.023773503 0.0621975 0.07880555 -0.0627152 -0.06832834 0.021362584
0.085219234 -0.011643653 0.089970626 0.11718117 -0.24149203 0.041286673 -0.0949314 -0.09437835
0.05848107 -0.14037392 -0.022532033 -0.0009724531 -0.13361396 0.02694146 0.01246952 -0.07519818
-0.06890556 0.060315877 -0.12620819 -0.008368396 -0.05483867 0.09848203 -0.12501729 -0.13674161
-0.123484455 0.022753049 0.071213104 0.001275938 -0.0009989751 -0.05589934 0.059335545 -0.058036365
0.083639465 0.00055727153 -0.023684492 -0.043254443 0.009309115 0.01441271 -0.009329314 -0.034016233
-0.010791786 0.032618992 -0.053161267 0.009286695 0.0531968 -0.06689939 0.067067355 -0.0045036697
-0.004078438 0.08942864 0.000111012625 0.020065945 -0.006155304 -0.015693689 0.034590974 -0.072283514
-0.05709473 -0.01198967 0.06729918 -0.005360858 0.08926993 -0.06883433 0.016777875 -0.04763753
-0.037217222 0.03795853 0.05155145 -0.019821703 0.002648791 -0.03327544 -0.05215523 0.015705291
-0.07431843 -0.06735313 -0.0005599455 0.031914234 -0.07032512 -0.06840984 0.0683286 0.051398143
-0.0651782 -0.04911228 0.0006036965 0.036319815 -0.075379714 -0.04190957 -0.05624888 -0.05689329
-0.06695067 0.05368406 0.01523001 0.0829328 -0.112873234 0.061983574 -0.028476391 0.014811669
-0.08569717 -0.027849723 -0.035490807 0.040483207 0.06414728 0.035072107 0.016418638 -0.014072403
0.0028414887 -0.06446036 0.07368727 -0.05657361 0.07508963 -0.036593188 0.101829685 -0.070384085
0.00020327914 -0.032458555 -0.0052507427 0.030075446 0.024275562 -0.038004052 0.0042774333 0.051906187
-0.047849998 -0.051294614 0.03857539 -0.04868625 0.06206639 0.046060827 0.062199626 0.04857665
0.05083343 -0.08683413 -0.09404083 -0.0012136223 -0.05754594 -0.0490915 -0.021408523 -0.030131262
-0.008739755 0.020235036 0.010239967 0.015537282 -0.01674966 0.019782357 -0.022014938 0.001999335
00000000: 656e 6dbc cf1d 433c c5ca 333d 6cf8 533c
00000010: 9d4e c9bd b18e 9a3d a1e5 05bd 62b6 c0bd
00000020: 181f 83bd 4af0 903d 3784 4cbb 97da 2ebd
00000030: d785 22bc e430 1c3b be39 943d e589 843d
00000040: 634f 8d3d b507 d03c bec6 e4bc d0a3 623c
00000050: 50f6 9e3d dd2d 683d cac7 32bd f020 853d
00000060: ee04 5b3d 7def f0bc 0530 ee3b 5472 873d
00000070: 27a0 443d 51e7 2f3d 0a61 9fbd 8a99 87bc
00000080: 023d 05be c3bf 1fbd c57b d6bc 772a a4bd
00000090: 3499 743d 7119 193c 3b4c 25bd ed7c f23c
000000a0: da0d c2bd cf67 883c daef bf3c 52b7 8abd
000000b0: 2f70 96bc f48d 3f3d ebfb e9bd 470d 3e3c
000000c0: b360 473d 7371 233b 454b e13c 875b 223d
000000d0: 34a4 77bd f4df 90bc 12b4 b63d 85b7 333c
000000e0: 5489 c13d b496 b03c 1a45 863d 8594 47bb
000000f0: b68a 753d d14e a9bd d07d 8dbd 8250 a73c
00000100: 12af e23b 0b7b d83b e8f6 b0bc 5b2a c3bc
00000110: 92fd 43bc b219 b53d e0c0 733d 7bcc 1abb
00000120: e05c 683d e65a 5b3c 83d3 26bd a4cf 86bd
00000130: 7b31 c0bd da2b d03c 5d31 b1bc c317 dd3d
00000140: e358 7bbd f726 3fbd be8a f83c 324d 36bb
00000150: 1132 9d3c 6a5a df3c 5681 a43a 977d a3bd
00000160: 1bc8 0fbe 55cb 443d 543d 72bd 646c cf3c
00000170: c289 0f3d 8b80 32bc ef9d 493d c38e aabd
00000180: 7d56 d33d 4a44 aebc f8a0 79bd 6f0e 0c3e
00000190: a2f0 febb 9877 713d dc0d abbc a96e 903d
000001a0: da0d 60bc 9262 343d a6c0 c2bc cec2 7e3d
000001b0: ce64 a13d d470 80bd bbef 8bbd 9600 af3c
000001c0: 6c87 ae3d 05c5 3ebc 8542 b83d aefc ef3d
000001d0: b049 77be 371c 293d 656b c2bd 7049 c1bd
000001e0: d989 6f3d 2ebe 0fbe 1995 b8bc 39ec 7eba
000001f0: 19d2 08be 56b4 dc3c f54c 4c3c 8101 9abd
00000200: 5c1e 8dbd c80d 773d b83c 01be 991b 09bc
00000210: 839e 60bd f2b0 c93d 8804 00be fe05 0cbe
00000220: 6be5 fcbd 9a64 ba3c 2dd8 913d 603d a73a
00000230: 0bf0 82ba b5f6 64bd d409 733d 8ab7 6dbd
00000240: 2b4b ab3d dc15 123a fb05 c2bc 922b 31bd
00000250: 4285 183c 4a23 6c3c fbd9 18bc 9b54 0bbd
00000260: 08d0 30bc 7e9b 053d a1bf 59bd 3927 183c
00000270: e3e4 593d 8c02 89bd 9c5a 893d 8593 93bb
00000280: 6ba4 85bb 5d26 b73d 73cf e838 5661 a43c
00000290: 6fb2 c9bb 0d90 80bc 44af 0d3d 6109 94bd
000002a0: 2adc 69bd 5270 44bc 27d4 893d 23aa afbb
000002b0: 27d3 b63d 03f9 8cbd c171 893c 921f 43bd
000002c0: 1671 18bd 677a 1b3d 9d27 533d 2061 a2bc
000002d0: 5797 2d3b d44b 08bd b9a0 55bd 62a8 803c
000002e0: 4334 98bd 70f0 89bd 4ec9 12ba 80b8 023d
000002f0: 9e06 90bd 751a 8cbd ddef 8b3d dc86 523d
00000300: 267c 85bd f529 49bd 6341 1e3a 16c4 143d
00000310: ae60 9abd 5fa9 2bbd 3a65 66bd f008 69bd
00000320: 6f1d 89bd d1e3 5b3d 4b87 793c acd8 a93d
00000330: 152a e7bd 7de2 7d3d 5247 e9bc a4ac 723c
00000340: ff81 afbd 1a25 e4bc cf5e 11bd b8d1 253d
00000350: a65f 833d c5a7 0f3d 6180 863c f08f 66bc
00000360: 4538 3a3b cb03 84bd 5ae9 963d bbb9 67bd
00000370: 98c8 993d bde2 15bd 158c d03d 8825 90bd
00000380: 5427 5539 43f3 04bd 6c0e acbb c860 f63c
00000390: 8bdd c63c 23aa 1bbd b629 8c3b 959b 543d
000003a0: 5cfe 43bd 4d1a 52bd 3a01 1e3d 3c6b 47bd
000003b0: 5439 7e3d 47aa 3c3d 09c5 7e3d 4ff8 463d
000003c0: b736 503d 18d6 b1bd 7b98 c0bd 6812 9fba
000003d0: 4bb5 6bbd 2b14 49bd ed60 afbc d6d5 f6bc
000003e0: 3031 0fbc f2c3 a53c 89c5 273c 1690 7e3c
000003f0: 9536 89bc 9c0e a23c ac58 b4bc 4607 033b
